part8/output/checkpoint9.pt (torch, 5867 bytes, 1 tensors)

fc.weight f4 [4, 300]
-0.9438195 -0.69947606 0.015546634 1.2412295 1.6546762 -1.85338 -1.2325295 1.719167
1.4316248 0.10356785 0.3860769 1.1392611 0.035259236 0.67938596 -1.8740726 0.3262484
-0.37525603 -0.9091007 0.857704 -0.36446932 0.7851647 -1.3032749 -0.26193118 -2.84116
1.1821526 0.76635104 0.6465879 0.0508523 -0.2172753 -0.1288289 0.48317865 -0.65033823
1.360392 -0.20999458 -0.52656007 1.0105258 -1.2748324 -0.07224348 1.7161682 -1.0240382
0.31496924 0.46150056 2.852532 -0.5242184 -3.1952999 -0.556928 -0.41281182 0.41595837
-0.77388287 1.0606999 0.3431534 -1.3439342 2.2738593 0.6662346 -0.8730771 -0.5114584
0.6134529 1.0748243 1.8310355 -0.1444444 -1.4506092 1.3931745 -1.7244661 -1.1026435
0.90892714 -0.68879515 1.9794338 -1.7728434 0.75506717 0.79900235 -1.9768376 -0.8441713
0.67239887 -0.28403705 1.5604398 -1.2007934 -1.3946271 1.6181434 0.2344375 0.29397854
0.13689537 1.733112 -1.3769279 0.73891735 2.5039341 1.1474621 0.80450565 0.51145995
0.69914216 -1.6648672 -0.7803831 -1.8852375 -0.2007784 2.6309536 -3.5381525 -1.9702753
1.6735703 -0.7630219 0.17727955 1.1891636 -1.8983845 0.9803649 -0.7504471 1.4574741
0.016304554 0.3684916 -0.36318758 0.65707123 -2.4012806 -0.7640823 0.29923415 -1.4973474
-0.114911266 -0.2113806 -0.29939875 0.14356749 2.4837952 1.2075224 0.075290635 0.30801454
-0.57757664 2.563904 1.1161535 1.0208167 -0.8042803 -2.351419 -0.49916324 -1.4450645
-0.67624635 -0.21661305 -0.049480848 1.1673898 1.0945712 -2.334663 0.15781143 -0.66940165
-0.7602733 -1.1406608 0.61463356 -0.4416275 -0.28161904 -1.5299544 0.66188455 -0.9621681
-0.7076036 -1.6596268 -0.30334544 0.10415739 0.25400293 0.22302166 0.6670239 1.2839078
1.7196593 -1.6346283 0.1239984 1.348303 -1.4776206 -0.28097257 0.81991345 0.3470285
-1.4304993 -0.6858568 -0.04900605 -1.7046211 -0.7614221 -1.2646687 0.18962732 0.25248155
-0.13850899 0.34973356 -2.7606647 -0.007343874 0.5879067 -0.7210965 1.1509395 -0.3451821
0.38166222 -1.7720034 0.2161444 -1.8214139 -1.0907755 -2.4535959 -1.6373715 -0.9173207
0.7970572 -0.979737 2.0656211 2.61966 -0.32307014 -1.2052255 -0.28379312 -1.1237094
-1.3408707 1.8733237 -1.3879278 0.051174346 -3.508926 -2.2658079 1.1862969 -1.7609986
-1.9652708 0.6597449 0.8680357 -0.7398332 -1.9754461 -0.36796933 0.0024307885 0.3897051
0.63737583 -1.8420268 -0.2396286 -0.17557938 2.1882274 2.9079165 0.120207086 0.14303023
-0.14883249 -0.45539618 0.21537688 0.14058726 0.15080085 0.4478821 -5.2120776 0.18214817
0.8570512 2.273794 0.421492 -0.94213384 -0.40471178 -0.3945572 -1.0712231 2.4500153
0.9371129 -0.9553048 -2.157076 -0.06955502 1.4601247 0.7928952 -0.8373267 -0.019408504
0.2454432 0.17553924 -1.1733499 0.92465544 -0.06679064 -1.4333068 1.7843924 -0.62495494
-0.09820226 1.6303757 -1.8424203 -0.81446934 -1.155242 0.37425873 0.5534677 0.71391267
00000000: 289e 71bf dd10 33bf 4fb7 7e3c 9ce0 9e3f
00000010: 6ecc d33f 8e3b edbf 87c3 9dbf aa0d dc3f
00000020: 7b3f b73f 621b d43d dfab c53e 4fd3 913f
00000030: fd6b 103d 3dec 2d3f 9ce1 efbf 080a a73e
00000040: 8f21 c0be d3ba 68bf 7d92 5b3f b99b babe
00000050: 8e00 493f b6d1 a6bf d81b 86be 91d5 35c0
00000060: c750 973f 952f 443f c986 253f 804a 503d
00000070: 6b7d 5ebe b9eb 03be 3163 f73e 917c 26bf
00000080: 5321 ae3f d208 57be a4cc 06bf e958 813f
00000090: b52d a3bf 64f4 93bd 66ab db3f af13 83bf
000000a0: a643 a13e cd49 ec3e e28f 3640 2d33 06bf
000000b0: cb7f 4cc0 d592 0ebf 125c d3be 7ff8 d43e
000000c0: 301d 46bf 04c5 873f cdb1 af3e 0906 acbf
000000d0: e986 1140 5a8e 2a3f fb81 5fbf f0ee 02bf
000000e0: 400b 1d3f d893 893f 5f5f ea3f 3ce9 13be
000000f0: 90ad b9bf 8b53 b23f 4ebb dcbf 6c23 8dbf
00000100: 73af 683f e154 30bf 165e fd3f 88ec e2bf
00000110: 154c 413f 6b8b 4c3f 0409 fdbf 9c1b 58bf
00000120: 5522 2c3f 4e6d 91be 7ebc c73f 99b3 99bf
00000130: 2483 b2bf 531f cf3f 6210 703e 5b84 963e
00000140: 4d2e 0c3e 9dd6 dd3f 2c3f b0bf b029 3d3f
00000150: 7540 2040 0ae0 923f 15f4 4d3f 0aef 023f
00000160: fbfa 323f 5e1a d5bf 30c7 47bf 764f f1bf
00000170: da98 4dbe 8b61 2840 1771 62c0 fb31 fcbf
00000180: 8d37 d63f 6755 43bf c588 353e 8336 983f
00000190: 43fe f2bf 32f9 7a3f 4d1d 40bf 838e ba3f
000001a0: 2191 853c eeaa bc3e b9f3 b9be d235 283f
000001b0: 95ae 19c0 e69a 43bf 3835 993e 14a9 bfbf
000001c0: 9956 ebbd 2874 58be cb4a 99be 5b03 133e
000001d0: 80f6 1e40 1890 9a3f fa31 9a3d 15b4 9d3e
000001e0: 10dc 13bf 0117 2440 1ede 8e3f 1faa 823f
000001f0: 50e5 4dbf a67d 16c0 5392 ffbe e0f7 b8bf
00000200: 7b1e 2dbf d0cf 5dbe 6eac 4abd 076d 953f
00000210: e91a 8c3f 1e6b 15c0 5299 213e e85d 2bbf
00000220: 45a1 42bf 2c01 92bf a058 1d3f 001d e2be
00000230: 5f30 90be 8cd5 c3bf 4471 293f a650 76bf
00000240: 8225 35bf a76e d4bf 1850 9bbe 7850 d53d
00000250: ac0c 823e ca5f 643e 14c2 2a3f 1757 a43f
00000260: cc1d dc3f 803b d1bf e0f2 fd3d 3195 ac3f
00000270: ac22 bdbf a3db 8fbe d9e5 513f b8ad b13e
00000280: 9a1a b7bf 5094 2fbf 91ba 48bd 0631 dabf
00000290: 8fec 42bf aae0 a1bf aa2d 423e 4345 813e
000002a0: 4dd5 0dbe 4710 b33e bbae 30c0 e1a4 f0bb
000002b0: 0e81 163f c899 38bf fc51 933f b5bb b0be
000002c0: 3b69 c33e 02d1 e2bf f554 5d3e 1724 e9bf
000002d0: 889e 8bbf b707 1dc0 6495 d1bf 88d5 6abf
000002e0: f10b 4c3f 0bd0 7abf 2333 0440 82a8 2740
000002f0: 7369 a5be d444 9abf 554d 91be b6d5 8fbf
00000300: a7a1 abbf 12c9 ef3f 9ea7 b1bf 319c 513d
00000310: 3e92 60c0 ff02 11c0 94d8 973f 6768 e1bf
00000320: fe8d fbbf 0be5 283f 9637 5e3f b565 3dbf
00000330: 6bdb fcbf 7a66 bcbe dd4d 1f3b 6d87 c73e
00000340: 102b 233f 89c7 ebbf 3361 75be 15cb 33be
00000350: eb0b 0c40 4e1b 3a40 222f f63d 8476 123e
00000360: 8b67 18be b029 e9be c28b 5c3e 1bf6 0f3e
00000370: 8a6b 1a3e cd50 e53e 57c9 a6c0 0d85 3a3e
00000380: b567 5b3f d785 1140 cdcd d73e af2f 71bf
00000390: 6236 cfbe 6703 cabe d71d 89bf 0dcd 1c40
000003a0: a2e6 6f3f db8e 74bf 880d 0ac0 dd72 8ebd
000003b0: 5ee5 ba3f 2efb 4a3f 0b5b 56bf 95fe 9ebc
000003c0: 7655 7b3e 8fc0 333e 5430 96bf 38b6 6c3f
000003d0: 88c9 88bd 9976 b7bf f866 e43f 0cfd 1fbf
000003e0: 441e c9bd 27b0 d03f 6ed4 ebbf 1081 50bf
000003f0: f8de 93bf d79e bf3e 0fb0 0d3f fbc2 363f
