part8/output/checkpoint5.pt (torch, 5867 bytes, 1 tensors)

fc.weight f4 [4, 300]
0	0xbf538581	-0.82625586
1	0xbf5a057a	-0.85164607
2	0xbdb6fbd4	-0.08934751
3	0x3f9a3515	1.2047449
4	0x3f8b2fa6	1.0873916
5	0xbfcedfbc	-1.6162028
6	0xbf2c793b	-0.67372483
7	0x3fcab8e7	1.5837678
8	0x3fb100bc	1.3828349
9	0x3d069e73	0.032865953
10	0xbda1d98e	-0.079028234
11	0x3f8c2974	1.095015
12	0xbd006d52	-0.031354256
13	0x3f8f4a17	1.1194485
14	0xbffea785	-1.9894873
15	0x3ecefddc	0.40428054
16	0xbdee8a88	-0.116475165
17	0xbf6671d7	-0.90017456
18	0x3f5aced2	0.8547183
19	0xbf2349bb	-0.6378438
20	0x3f513826	0.817263
21	0xbf6c5b9a	-0.9232727
22	0xbeb24d8a	-0.34824783
23	0xc0264583	-2.5979927
24	0x3f7d9032	0.9904815
25	0x3f1c66e2	0.61094487
26	0x3ed2c2c9	0.41164234
27	0xbe9e72b0	-0.30946875
28	0xbe03c61d	-0.12868543
29	0x3bda3d45	0.006660136
30	0x3f28b5a2	0.6590215
31	0xbeaf5471	-0.3424411
32	0x3facdb3f	1.3504409
33	0xbdab4095	-0.083619274
34	0xbeebb80a	-0.46038848
35	0x3f30ee56	0.6911367
36	0xbf5e1e4c	-0.8676498
37	0xbe01d33a	-0.12678233
38	0x3fea6b6c	1.8314033
39	0xbf090abd	-0.5353201
40	0x3e3ef4da	0.18648091
41	0x3f10e15b	0.56593865
42	0x4023cb95	2.5593007
43	0xbf3637d3	-0.7117893
44	0xc03b6874	-2.9282503
45	0xbed3ed9e	-0.41392225
46	0xbe8c5e00	-0.27415466
47	0x3ea39a6e	0.31953758
48	0xbf3d2f4c	-0.73900294
49	0x3f5ac4e3	0.85456675
50	0x3e87b3c0	0.26504326
51	0xbf877e1c	-1.058536
52	0x4019bc82	2.4021306
53	0x3f425621	0.7591267
54	0xbee0cdf5	-0.43907133
55	0xbf139653	-0.5765125
56	0x3f18864f	0.5957994
57	0x3fb06419	1.3780547
58	0x3fdb9899	1.7155944
59	0xbdcc95cd	-0.0998951
60	0xbf93a8a4	-1.153584
61	0x3f9981a7	1.1992692
62	0xbfc01c6a	-1.5008671
63	0xbf3d35e2	-0.73910344
64	0x3f738b1a	0.9513413
65	0xbf4854bc	-0.78254294
66	0x3ff893b3	1.9420074
67	0xbfcdf3b9	-1.6090003
68	0x3f43890d	0.76381
69	0x3edb4fa8	0.4283421
70	0xbfd7c55d	-1.6857105
71	0xbf63fea0	-0.890604
72	0x3f17cdec	0.59298587
73	0xbdaa5e7c	-0.08318803
74	0x3fc407f4	1.5314927
75	0xbf7fa237	-0.99856895
76	0xbf59dc19	-0.8510147
77	0x3fb43b35	1.4080569
78	0x3ca83165	0.020531366
79	0xbdb7e2c3	-0.08978798
80	0xbe709b4a	-0.23496738
81	0x3f6433e8	0.891417
82	0xbf9a4582	-1.2052462
83	0x3f09be61	0.5380612
84	0x401a334e	2.4093814
85	0x3f87607b	1.0576319
86	0x3f48ff79	0.7851482
87	0x3f0c18f1	0.5472556
88	0x3f3ffb9e	0.7499331
89	0xbfbf9345	-1.4966818
90	0xbf04c75c	-0.518667
91	0xbfc2c204	-1.5215459
92	0xbe353629	-0.17696442
93	0x4024b755	2.5736897
94	0xc04ff729	-3.2494605
95	0xbfec2a71	-1.8450452
96	0x3fcd9ba3	1.6063122
97	0xbf47a761	-0.77989775
98	0x3ecd2925	0.40070453
99	0x3f815ad3	1.0105842
100	0xbfcf7188	-1.6206522
101	0x3f21a1ef	0.63137716
102	0xbeecd88f	-0.4625897
103	0x3fd458a7	1.6589555
104	0x3b8240cd	0.00397501
105	0x3ec8bfeb	0.39208922
106	0xbef2c2a0	-0.47414112
107	0x3eff5fe8	0.49877858
108	0xc0154418	-2.332281
109	0xbf05eb3b	-0.5231206
110	0x3e9e460d	0.3091282
111	0xbfa9777e	-1.3239591
112	0x3deedd82	0.11663343
113	0x3ea616f3	0.32439384
114	0xbf33c911	-0.7022868
115	0x3e4b9ccf	0.19884036
116	0x3ffcdcb3	1.9754852
117	0x3f8704f5	1.0548388
118	0xbce37b64	-0.027768798
119	0x3d5182a8	0.051149994
120	0xbf3a29eb	-0.7272021
121	0x400f309b	2.2373416
122	0x3f790052	0.97266114
123	0x3f989524	1.1920514
124	0xbf4e69e3	-0.8063032
125	0xbfe13f8b	-1.7597517
126	0xbf22b777	-0.63561195
127	0xbfc7ba61	-1.5603753
128	0xbf2c9c16	-0.6742567
129	0x3e4581ee	0.19287845
130	0x3e0411e2	0.12897447
131	0x3f8a689e	1.0813177
132	0x3fafc2d0	1.3731327
133	0xbff6256c	-1.923017
134	0x3ec73a75	0.38911787
135	0xbf8d5656	-1.1041973
136	0xbf1bbc94	-0.6083462
137	0xbf9dd5d6	-1.2330883
138	0x3f3f0fd1	0.7463351
139	0xbf08555e	-0.5325526
140	0xbe28cefc	-0.16485208
141	0xbf88876e	-1.066633
142	0x3f3be038	0.73389006
143	0xbf64d89d	-0.89393026
144	0xbf220514	-0.63289
145	0xbfce79f4	-1.6130967
146	0xbe4170dc	-0.18890709
147	0x3ebaaa9f	0.364583
148	0x3e869ce3	0.2629157
149	0x3dcce80a	0.100051954
150	0x3f26ce79	0.651588
151	0x3fd1af4a	1.6381619
152	0x3fba353e	1.4547498
153	0xbfaeab1a	-1.3645966
154	0x3e0cb9d9	0.1374277
155	0x3f8e3b76	1.1111896
156	0xbf963a84	-1.1736608
157	0xbf0cdcc1	-0.55024344
158	0x3f3d046e	0.73834884
159	0x3dea4326	0.11438589
160	0xbfc7e2b7	-1.5616063
161	0xbf6d2b52	-0.92644227
162	0xbd3d1277	-0.046160188
163	0xbfabbe56	-1.3417461
164	0xbf07e112	-0.53077805
165	0xbf58def3	-0.84715194
166	0x3e1c4342	0.15260032
167	0x3ea176f1	0.31536058
168	0x3e6612ae	0.22468063
169	0x3e61cfa6	0.22051868
170	0xc020ed04	-2.5144663
171	0xbe12dd68	-0.14342272
172	0x3f209bb1	0.62737566
173	0xbf146940	-0.579731
174	0x3f8700b2	1.0547087
175	0xbed59907	-0.41718313
176	0x3e95fc18	0.29293895
177	0xbfd8eb9d	-1.6946903
178	0xbdc1d5ed	-0.09464631
179	0xbff0f55f	-1.8824881
180	0xbf5140bd	-0.8173941
181	0xc00cb622	-2.1986165
182	0xbf8fe5d6	-1.1242015
183	0xbf86a698	-1.051959
184	0x3eab0ec3	0.334097
185	0xbf3d662b	-0.7398402
186	0x3fe85c28	1.8153124
187	0x4015988a	2.3374352
188	0xbdcd7fba	-0.100341275
189	0xbf6013cd	-0.87530214
190	0xbea867e1	-0.32891753
191	0xbf866b43	-1.0501484
192	0xbf6f4881	-0.9347001
193	0x3ffc8bd2	1.973017
194	0xbfb925be	-1.4464643
195	0x3f03ca3f	0.5148048
196	0xc024d2e3	-2.5753715
197	0xc006d5c8	-2.1067982
198	0x3f8e88fe	1.1135557
199	0xbfb88ead	-1.4418541
200	0xbfe5b348	-1.7945337
201	0x3f204669	0.6260744
202	0x3f4f8f54	0.81078076
203	0xbf13356d	-0.57503396
204	0xbfeaec59	-1.8353378
205	0xbf077ec5	-0.5292781
206	0x3eb65560	0.3561201
207	0x3e2690d1	0.1626618
208	0x3eb9e641	0.36308482
209	0xbffb0c3c	-1.9613109
210	0xbe1e5d82	-0.15465358
211	0xbeb32d61	-0.3499556
212	0x3ffc9546	1.9733055
213	0x403c4a04	2.9420176
214	0x3e76fc8a	0.24119774
215	0x3ebf8c8b	0.37411913
216	0xbe5f755d	-0.21822114
217	0xbf02dcbb	-0.5111806
218	0x3dc0a086	0.094056174
219	0x3ebc3fe0	0.36767483
220	0x3e784983	0.24246792
221	0x3ecf82ec	0.40529573
222	0xc0991197	-4.783397
223	0xbdb46e83	-0.08810141
224	0x3f6b3594	0.9187863
225	0x400a004d	2.1562684
226	0x3eb65a45	0.35615745
227	0xbf9605c7	-1.1720513
228	0xbe6ae82d	-0.2294013
229	0xbf0b8fac	-0.545161
230	0xbf6d79c3	-0.9276392
231	0x40024cb6	2.035932
232	0x3f4067d4	0.7515843
233	0xbf091220	-0.5354328
234	0xc0043bf2	-2.0661588
235	0xbe45b80a	-0.19308487
236	0x3f94535c	1.1587939
237	0x3f4f007b	0.8086011
238	0xbf42cf26	-0.76097333
239	0xbf17701a	-0.5915543
240	0x3e2bfc0d	0.16795368
241	0x3e81b005	0.25329605
242	0xbf746bbb	-0.95476884
243	0x3f7a534e	0.9778336
244	0x3ea7925b	0.32728848
245	0xbf9ce826	-1.2258346
246	0x3fb6cc12	1.4281027
247	0xbf18da87	-0.59708446
248	0x3db5dbad	0.088797905
249	0x3fbb3c73	1.4627823
250	0xbfc5d34f	-1.5455111
251	0xbeecf61f	-0.46281525
252	0xbfbf9594	-1.4967523
253	0x3e73d902	0.2381325
254	0x3ec020ad	0.3752493
255	0x3f22ded0	0.63621235
