part8/output/checkpoint10.pt (torch, 5867 bytes, 1 tensors)

fc.weight f4 [4, 300]
000000 a3 1a 84 bf d5 f9 2e bf 1a be 8f 3d 26 07 a5 3f
       -1.0320629 -0.68349963 0.07018681 1.2892807
000010 9b d1 de 3f ed a8 f5 bf fa e6 b4 bf d9 35 e0 3f
       1.7407717 -1.9192177 -1.4132988 1.7516433
000020 d0 ac b7 3f e6 35 e5 3d bc 72 19 3f 01 87 8a 3f
       1.4349613 0.11191921 0.59940696 1.082245
000030 26 2e b4 3a 52 34 20 3f 64 ca ea bf 62 4c bf 3e
       0.0013746663 0.62579834 -1.8343015 0.37362963
000040 9b 1b e9 be 8f 45 6a bf 59 d0 5c 3f 03 0b a2 be
       -0.45528874 -0.9151239 0.86255413 -0.31649026
000050 ca cb 48 3f 15 67 b0 bf 03 bd 89 be 4e 4a 39 c0
       0.7843596 -1.3781458 -0.26902017 -2.8951602
000060 c2 a4 9b 3f b0 66 4b 3f 73 b8 39 3f 1a d2 05 3e
       1.2159655 0.79453564 0.7254707 0.13068429
000070 a1 e4 58 be 1d e0 59 be 7c ac df 3e dc 1e 27 bf
       -0.21180965 -0.21276899 0.43686283 -0.6528146
000080 38 28 ba 3f 1f ce 2b be ab 1e 07 bf 7c 9c 8a 3f
       1.4543524 -0.16777848 -0.5278117 1.0829005
000090 47 a6 ad bf 02 67 67 bd 8b 93 da 3f e8 a1 97 bf
       -1.3566369 -0.05649472 1.7076277 -1.1846285
0000a0 ed f4 9c 3e 83 69 fa 3e 4e e5 3d 40 27 fc f0 be
       0.30655614 0.48908624 2.9671206 -0.47067377
0000b0 4c 3b 50 c0 d5 cb 09 bf bf e7 cd be 72 24 dd 3e
       -3.2536192 -0.5382665 -0.4021587 0.43191868
0000c0 b0 0f 41 bf 02 73 8c 3f 04 ca b3 3e 64 16 b4 bf
       -0.7541456 1.0972598 0.35115063 -1.4069333
0000d0 b3 c6 12 40 67 16 27 3f 77 5d 76 bf 9e 54 0a bf
       2.2933776 0.6526856 -0.96236366 -0.54035366
0000e0 71 43 29 3f 47 06 82 3f e8 51 e1 3f f4 f5 06 be
       0.6611853 1.0158166 1.7603121 -0.13179761
0000f0 d6 e6 bf bf d1 d9 ae 3f ac 41 e1 bf 59 a2 94 bf
       -1.499232 1.3660222 -1.7598166 -1.1612045
000100 53 e3 6b 3f af 44 30 bf cc 29 fd 3f d6 85 e9 bf
       0.92143744 -0.688548 1.977838 -1.8243968
000110 26 c6 3b 3f 94 8f 50 3f bf 21 fa bf 23 06 45 bf
       0.73349226 0.8146908 -1.9541548 -0.7696249
000120 62 a1 23 3f 08 a5 be be 76 8f c2 3f 94 ea a4 bf
       0.63918126 -0.37235284 1.5200031 -1.2884088
000130 ce 84 bb bf 90 70 cf 3f 4a 80 98 3e a4 73 be 3e
       -1.4649904 1.6206226 0.29785377 0.37197602
000140 38 f3 58 3e 78 4d f8 3f cf bd b2 bf 1a bb 43 3f
       0.2118653 1.9398642 -1.3964175 0.7645737
000150 cb f0 20 40 63 b7 99 3f 26 4d 46 3f 0d 35 e7 3e
       2.5146968 1.200909 0.7746147 0.45157662
000160 72 cd 33 3f ae da cd bf 9b 90 66 bf 59 f4 f1 bf
       0.7023536 -1.6082361 -0.900644 -1.8902694
000170 f3 e7 5b be f9 0b 24 40 17 2a 65 c0 cf 36 ff bf
       -0.214752 2.5632308 -3.580694 -1.9938601
000180 4e a5 d6 3f 5e 87 43 bf 50 68 da 3d 9b d2 9a 3f
       1.6769197 -0.7637843 0.10664427 1.2095522
000190 65 b0 fb bf 4c cc 8c 3f d1 dc 4c bf e3 f0 b3 3f
       -1.9663206 1.0999846 -0.8002444 1.4057888
0001a0 2c 1a 01 3b b7 7e 98 3e 41 eb b6 be 9f ed 2e 3f
       0.0019699438 0.29784176 -0.3572636 0.6833133
0001b0 66 05 16 c0 04 96 4a bf 27 fb 8e 3e ac 97 c6 bf
       -2.3440795 -0.79135156 0.2792599 -1.5515037
0001c0 fa 06 3c be c1 05 73 be 32 54 75 be a0 31 c8 3d
       -0.18362036 -0.23732664 -0.23957899 0.0977509
0001d0 1f 63 29 40 d1 4d a4 3f a2 4b 4c 3c 7c 94 b3 3e
       2.6466749 1.2836248 0.012469204 0.35074222
0001e0 84 74 10 bf 41 b7 24 40 5b ee 94 3f ae 8e 80 3f
       -0.5642779 2.573685 1.163524 1.0043542
0001f0 be b9 5b bf 07 8e 1c c0 2c 31 ed be af b8 b6 bf
       -0.85830295 -2.4461687 -0.46326578 -1.4275111
000200 75 62 1f bf 11 4d b2 be 2d a4 d7 bd 3f 5d 9b 3f
       -0.6225961 -0.34824422 -0.10529361 1.2137831
000210 8d b0 81 3f 6e d2 15 c0 bc 09 50 3e 12 00 1a bf
       1.0132004 -2.3409686 0.20316213 -0.6015636
000220 d1 70 3d bf cb b3 90 bf d7 c8 1b 3f 77 53 ea be
       -0.7400027 -1.1304868 0.6085333 -0.45766804
000230 c2 c3 b8 be 30 af c8 bf e1 f7 24 3f bf 92 80 bf
       -0.3608685 -1.5678463 0.64440733 -1.0044783
000240 9c cc 3b bf 62 ba d1 bf 5f 41 bf be 78 8d 41 bc
       -0.73359084 -1.6385005 -0.37354562 -0.011813514
000250 27 8c 80 3e ea f2 99 3e 7d 9b 2b 3f 7e df 9d 3f
       0.25106928 0.3006814 0.6703413 1.2333829
000260 c8 91 df 3f 32 35 df bf 08 75 f4 3d 4a 58 b1 3f
       1.7466364 -1.7438109 0.119363844 1.3855069
000270 23 71 bc bf 48 13 5a be fe 9a 54 3f c4 2d eb 3e
       -1.4722027 -0.21296418 0.83049 0.45933354
000280 70 df af bf d2 fd 1d bf c4 8a 00 be dd da dc bf
       -1.3740063 -0.61715424 -0.12552935 -1.7254292
000290 27 1e 49 bf d7 49 b1 bf 87 fc 0a 3e 84 bc 81 3e
       -0.78561634 -1.3850659 0.13572894 0.25339139
0002a0 57 3a 46 be aa fc a6 3e dd 27 36 c0 0c 17 54 3d
       -0.19358192 0.32614642 -2.846183 0.05177979
0002b0 64 66 0d 3f be fe 27 bf 7f 30 92 3f 36 94 a8 be
       0.5523436 -0.6562308 1.142105 -0.32925576
0002c0 2e d4 ca 3e 4c b9 e2 bf 06 9f 80 3e fa 12 e3 bf
       0.39615005 -1.7712798 0.25121325 -1.7740166
0002d0 a3 c6 85 bf 60 75 1c c0 8b 83 d8 bf ea d9 65 bf
       -1.0451244 -2.444664 -1.6915144 -0.89785635
0002e0 d7 bc 63 3f 4a 42 84 bf f6 44 01 40 1d fd 27 40
       0.8896002 -1.033273 2.019834 2.6248238
0002f0 d6 d6 d5 be be 4f 9b bf 24 d3 9c be 64 e7 8c bf
       -0.4176547 -1.213371 -0.30629838 -1.1008115
000300 63 d9 af bf f1 e0 f1 3f 2b 4b aa bf 43 2f 41 bd
       -1.3738216 1.8896772 -1.330419 -0.047164213
000310 40 82 6a c0 a2 95 11 c0 d4 fe 92 3f f9 04 e1 bf
       -3.6641998 -2.2747579 1.1484017 -1.7579643
000320 e0 70 fd bf 5d 79 20 3f 32 39 5a 3f fb 8f 3d bf
       -1.9800072 0.62685186 0.85243523 -0.7404782
000330 a4 d7 00 c0 58 99 a5 be 1c 06 27 bd c9 bf d6 3e
       -2.0131617 -0.32343554 -0.04077731 0.41943195
000340 d7 b5 39 3f e8 a2 e3 bf d6 b6 70 be 05 d5 08 be
       0.7254309 -1.778409 -0.23507246 -0.1336251
000350 1a c8 0d 40 eb 24 35 40 cb 00 2e 3e 35 7c c9 3d
       2.2153382 2.8303783 0.1699249 0.09838144
000360 31 7a 07 be 5f c9 c9 be 9c 25 6a 3e 04 c9 ee 3d
       -0.13230206 -0.39411446 0.2286591 0.116594344
000370 54 84 45 3e 09 d2 c3 3e 88 ed a7 c0 2a 98 45 3e
       0.1928876 0.38246182 -5.2477455 0.19296327
000380 d3 24 61 3f 94 78 13 40 5f 5e d4 3e fe 24 60 bf
       0.87946814 2.3042345 0.4147825 -0.87556446
000390 be 70 f0 be 82 5b b3 be fd c9 89 bf 54 13 1e 40
       -0.46961015 -0.35030752 -1.0764767 2.4699297
0003a0 a3 26 71 3f bf 37 82 bf 9c 38 0c c0 d6 02 6e bc
       0.9419958 -1.0173262 -2.1909552 -0.014527043
0003b0 12 95 be 3f be 3e 59 3f d6 c6 61 bf f2 bb 88 3d
       1.4889243 0.8486136 -0.88194025 0.06676473
0003c0 b0 2f 91 3e c9 26 28 3e 57 9a 99 bf 37 c7 6e 3f
       0.28356695 0.16421045 -1.2000226 0.9327273
0003d0 33 c0 37 be 36 fd b5 bf 3c a1 ee 3f ea 14 25 bf
       -0.17944412 -1.4217899 1.8642955 -0.6448504
0003e0 bc a7 27 be 32 3e d9 3f 7d d3 ee bf 18 fb 6a bf
       -0.1637258 1.6972106 -1.8658291 -0.9178939
0003f0 51 f8 88 bf 92 01 b1 3e 75 1d 0b 3f 10 a0 2c 3f
       -1.070078 0.3457151 0.5434182 0.67431736
