part8/output/checkpoint4.pt (torch, 5867 bytes, 1 tensors)

fc.weight f4 [4, 300]
00000000: 0e57 4ebf d670 5cbf 07f8 d7bd dec4 993f
00000010: 667d 5f3f 44c7 bfbf 978e f2be 09d8 c23f
00000020: 53e6 a93f be61 623d bd79 b1be 7d02 8b3f
00000030: 957a bebd 7bd9 a53f 515f 07c0 e4ef db3e
00000040: 9e0c 043d c86d 59bf 662d 553f 7cab 36bf
00000050: c8f5 573f fb34 32bf c6ad 83be b52d 1dc0
00000060: d330 683f 2004 0f3f 8380 883e 9c25 e9be
00000070: f88f 3fbe f650 203e 6664 3f3f 3dde 7dbe
00000080: 4af5 a93f e572 adbd f950 d2be f4f2 113f
00000090: d6d9 30bf 1a01 08be b898 e63f 1778 cbbe
000000a0: b433 ca3d f383 ed3e a769 1e40 d273 4fbf
000000b0: fd3a 3ac0 da8b ddbe 5653 66be 64f0 9b3e
000000c0: 0d49 43bf c222 553f 356b 103e 223b 5ebf
000000d0: a8d6 1d40 89af 533f 5edc 8fbe d498 10bf
000000e0: 6fcc 0b3f 644d b83f 3d61 d53f 1a75 afbd
000000f0: 347b 8bbf be8c 903f dd72 b6bf 2f0b 1fbf
00000100: 1c9b 7f3f 4764 58bf 3a0e f83f a9bb c0bf
00000110: fc54 403f cc22 a33e 9cf8 b8bf a8d3 61bf
00000120: 571a 163f 3e05 903d 5d18 b83f a217 63bf
00000130: b13b 2dbf 8183 bb3f 4922 013c 6d5c 5bbe
00000140: 7158 aebe bea0 0b3f 5837 8cbf 2133 df3e
00000150: f334 1840 4181 7f3f ed32 3f3f 3d62 0d3f
00000160: d4f4 513f 6f36 bcbf 2820 cebe 70d5 b0bf
00000170: 7bbf 50bd 6dba 2340 5223 49c0 733a e9bf
00000180: fcdb cd3f f1c5 3ebf e92e 043f 28fd 7c3f
00000190: 4658 c7bf e90d 0a3f cbbf a9be 43c9 de3f
000001a0: 3eb7 39bd 29b3 e33e 502b 02bf 6eb3 c83e
000001b0: 08f5 14c0 b33b e5be 6168 b43e fc94 a0bf
000001c0: aa43 673e 13b8 c53e aed7 4dbf 8d11 6c3e
000001d0: 22e0 e83f f9a8 763f 89b0 52bd 7971 19bd
000001e0: 1aff 41bf 1912 0c40 2e95 703f f8f6 a23f
000001f0: cdd3 45bf 7308 d2bf 4d22 2bbf be81 c5bf
00000200: 1ff2 27bf 4da2 b73e 6eae 513e 5516 7b3f
00000210: 205f c13f e40a e5bf 2c2a d53e 7c2a a4bf
00000220: 42a7 15bf 11fb a0bf 38d4 4e3f 2b6a 0abf
00000230: 7bf2 c3bd cceb 62bf 6a1e 523f 9314 61bf
00000240: 8e64 2abf 21d4 cfbf c6fe 25be 1a3f fe3e
00000250: 7964 af3e ab03 4e3d c1a0 243f 4b90 d83f
00000260: c9fb b23f 04f8 abbf 3585 ef3d b258 843f
00000270: 453c 89bf 1a26 2abf dc99 2b3f af4d 18bb
00000280: 3230 c7bf 527a 7fbf a300 9c3d 266a a6bf
00000290: ff11 d1be 4528 30bf 3524 383e cbac 8a3e
000002a0: a5fc c83e d5e6 5a3e d731 1bc0 d5c5 5dbe
000002b0: bb40 233f 50e5 16bf 5c97 7f3f 23a7 e9be
000002c0: c4dd 9f3e abd2 cbbf e33c 17be b1bd f0bf
000002d0: eba8 56bf d596 05c0 c87b 68bf f743 90bf
000002e0: 9c99 093e fd69 2abf a988 df3f 0be7 0940
000002f0: 9496 f0bb 38e9 33bf dce5 babe cd74 81bf
00000300: 91cb 4fbf 4e0a fe3f 247f bbbf 8b7a 2e3f
00000310: f87f 12c0 4ceb 04c0 959d 953f 0632 a5bf
00000320: c625 dabf c1f1 183f 6cfc 443f 92b2 f6be
00000330: 0053 e2bf 0dae 12bf 53d2 cb3e 3d36 3e3e
00000340: 27ac 7d3e e329 01c0 1839 18be 157d d1be
00000350: 2b62 f63f 5fbc 3c40 97c8 4b3e d5d0 d03e
00000360: 71c8 80be d6cb 11bf f8a4 2c3d d28d cc3e
00000370: cbeb 613e 30a8 c03e c1ed 95c0 848b 40be
00000380: 16ca 6e3f 8aec 0640 0df1 ca3e d58a 9dbf
00000390: afab 2bbe 3b7d 21bf 1e24 5bbf 0750 fd3f
000003a0: 6f1a 3b3f b01e c2be 6521 02c0 ea55 8ebe
000003b0: 3a4d 8b3f 8cce 443f fe64 31bf 63d3 42bf
000003c0: 4f7b 3c3e 1a69 ab3e 8b28 54bf a040 7d3f
000003d0: 3ea6 f53e e459 8ebf 794f a63f d445 02bf
000003e0: f161 573e a630 b43f 012f bbbf a080 8fbe
000003f0: 42e5 d0bf 0631 473e d4db c03e 8579 193f
-0.80601585 -0.86109674 -0.10545354 1.2013204 0.8730072 -1.4982686 -0.47374412 1.5222179
1.3273414 0.055268995 -0.3466319 1.0860134 -0.093007244 1.2956995 -2.1151927 0.4295646
0.032238595 -0.8493314 0.832724 -0.71355414 0.8435941 -0.6961209 -0.25718516 -2.4559147
0.906995 0.5586567 0.26660547 -0.45536506 -0.18707263 0.15655884 0.7476257 -0.24791808
1.3277981 -0.0846918 -0.41077402 0.5701134 -0.6908239 -0.1328167 1.8015356 -0.3974006
0.09873143 0.46389732 2.4751985 -0.810361 -2.9098504 -0.4327076 -0.22492728 0.3045684
-0.7628334 0.8325616 0.14103396 -0.8680898 2.4662266 0.8268972 -0.28097814 -0.564832
0.54608816 1.4398618 1.66703 -0.08567257 -1.0896974 1.1292951 -1.4253803 -0.6212644
0.99846053 -0.8452801 1.9379342 -1.5057269 0.75129676 0.31862485 -1.445087 -0.88213587
0.5863394 0.0703225 1.4382435 -0.88707936 -0.67669207 1.4649507 0.007881709 -0.21421976
-0.3405185 0.5454215 -1.095439 0.43593696 2.3782318 0.998066 0.7468708 0.55228025
0.82014203 -1.4704112 -0.40258908 -1.3815136 -0.05096386 2.5582535 -3.1427808 -1.8220962
1.6082759 -0.74520785 0.5163408 0.98823786 -1.5573814 0.53927475 -0.3315414 1.740517
-0.04534077 0.44472626 -0.5084734 0.39199394 -2.3274555 -0.4477211 0.35235885 -1.2545466
0.22584406 0.38617 -0.80407226 0.2305357 1.81934 0.9635158 -0.05143789 -0.03746173
-0.7577988 2.1886046 0.9397763 1.2731619 -0.7727631 -1.6408828 -0.66849214 -1.5430219
-0.6560382 0.35866013 0.20476696 0.9808095 1.5107155 -1.7893949 0.41633737 -1.2825465
-0.5845834 -1.2576619 0.8079257 -0.5406825 -0.09567734 -0.8864105 0.8207766 -0.8792202
-0.66559684 -1.6236612 -0.1621047 0.49657518 0.34256342 0.050296467 0.6430779 1.6919035
1.3983089 -1.3435063 0.11695329 1.0339568 -1.0721518 -0.6646439 0.67031646 -0.0023239662
-1.5561583 -0.9979602 0.07617309 -1.3001144 -0.40834042 -0.68811446 0.17982562 0.27084956
0.39255252 0.21377118 -2.424917 -0.21657498 0.63770646 -0.58943653 0.9984033 -0.45635328
0.3122388 -1.5923666 -0.1476932 -1.8807889 -0.838515 -2.087331 -0.90813875 -1.1270741
0.13437504 -0.66567975 1.746358 2.1547267 -0.007342169 -0.7027774 -0.36503494 -1.011377
-0.8116999 1.9846895 -1.4648175 0.68155736 -2.2890606 -2.0768614 1.1688715 -1.2905891
-1.7042778 0.5974389 0.76947665 -0.48183113 -1.768158 -0.5729683 0.39808902 0.18575378
0.24772702 -2.0181816 -0.1486553 -0.40915743 1.9248708 2.9489973 0.19900738 0.40784326
-0.25152925 -0.56951654 0.042149514 0.3995195 0.22062604 0.37628317 -4.6852727 -0.18803221
0.9327711 2.1081872 0.39637032 -1.2307993 -0.16764711 -0.6308171 -0.85601985 1.9790047
0.7308721 -0.37914038 -2.0332882 -0.27799922 1.0882943 0.76877666 -0.69294727 -0.761038
0.18406413 0.33478624 -0.82874364 0.98926735 0.47978395 -1.1121182 1.2993003 -0.508878
0.21033455 1.4077346 -1.462372 -0.2802782 -1.6319964 0.19452295 0.37667716 0.5995105
