part8/output/checkpoint7.pt (torch, 5867 bytes, 1 tensors)

fc.weight f4 [4, 300]
0	0xbf5fd61a	-0.8743607
1	0xbf485d86	-0.78267705
2	0xbd7f854a	-0.062382974
3	0x3f9979cc	1.1990294
4	0x3fb5e77a	1.4211266
5	0xbfd6917a	-1.6763146
6	0xbf836047	-1.0263757
7	0x3fdf5311	1.7447225
8	0x3fac90aa	1.3481648
9	0x3d9c3282	0.07626821
10	0x3e303ae1	0.1720996
11	0x3f912393	1.1338981
12	0xbd116e3a	-0.03550551
13	0x3f672b8a	0.9030081
14	0xbff1646d	-1.8858773
15	0x3eb2daad	0.3493246
16	0xbe3fd421	-0.18733265
17	0xbf68274c	-0.9068496
18	0x3f541d2f	0.8285703
19	0xbefd793a	-0.4950655
20	0x3f41e82f	0.7574491
21	0xbf89a53e	-1.0753553
22	0xbe712148	-0.23547852
23	0xc02c9901	-2.6968386
24	0x3f82ca09	1.0217906
25	0x3f350228	0.70706415
26	0x3f06be9c	0.52634597
27	0xbdb54a4f	-0.08852064
28	0xbe439eb9	-0.19103517
29	0xbd6a04ce	-0.05713349
30	0x3f179a02	0.5921937
31	0xbf06a2bf	-0.5259208
32	0x3fab4d0e	1.338289
33	0xbe8aca62	-0.2710753
34	0xbeeb9443	-0.46011552
35	0x3f61103f	0.87915415
36	0xbf86c6ad	-1.0529381
37	0xbdc57ad6	-0.0964257
38	0x3fda4741	1.7052995
39	0xbf44a041	-0.7680703
40	0x3e3af4b9	0.18257417
41	0x3ee17bca	0.44039756
42	0x402cd0f0	2.7002525
43	0xbf249070	-0.64282894
44	0xc0467138	-3.1006603
45	0xbf0a01ee	-0.53909194
46	0xbed408f5	-0.41413084
47	0x3ebd4388	0.36965585
48	0xbf46e88e	-0.776986
49	0x3f80d7c9	1.0065852
50	0x3e1bcf8f	0.15215896
51	0xbf9a8153	-1.2070717
52	0x4018721b	2.3819644
53	0x3f280ae1	0.656416
54	0xbf1da4c3	-0.6157953
55	0xbefa9634	-0.4894272
56	0x3f0548c4	0.52064157
57	0x3f94afa0	1.1616096
58	0x3fe15cf3	1.7606491
59	0xbe05b720	-0.13058138
60	0xbfac1fdf	-1.3447226
61	0x3fabb85a	1.3415635
62	0xbfd3cd2c	-1.6546988
63	0xbf6f028c	-0.9336326
64	0x3f648ea5	0.8928016
65	0xbf476421	-0.7788716
66	0x3ffabe4e	1.9589326
67	0xbfccde82	-1.6005404
68	0x3f483cba	0.7821766
69	0x3f1fcacc	0.6241882
70	0xbfe9c79c	-1.8264041
71	0xbf6c247b	-0.92243165
72	0x3f1f0a2a	0.62124884
73	0xbe2ff700	-0.17184067
74	0x3fc4e2a6	1.5381668
75	0xbf952bde	-1.1654012
76	0xbf9310ae	-1.1489465
77	0x3fbe5884	1.4870763
78	0x3e108ac8	0.14115441
79	0x3e67290b	0.2257425
80	0xbd8f61ba	-0.07001062
81	0x3fb3438f	1.4004992
82	0xbfa47542	-1.2848284
83	0x3f1d4402	0.61431897
84	0x401d870b	2.4613674
85	0x3f820af5	1.0159594
86	0x3f4f4f3b	0.8098027
87	0x3f0d1a68	0.5511842
88	0x3f49c83e	0.7882117
89	0xbfd2b386	-1.6461036
90	0xbf3172a7	-0.6931557
91	0xbfd8b67a	-1.6930687
92	0xbe0c4fb7	-0.13702284
93	0x402574da	2.585257
94	0xc058ed65	-3.3894894
95	0xbfedc7b6	-1.8576572
96	0x3fdd8139	1.7305061
97	0xbf3712b0	-0.7151289
98	0x3e907d78	0.28220725
99	0x3f8ecd17	1.1156338
100	0xbfd942bc	-1.6973491
101	0x3f4d18a0	0.801157
102	0xbf22f776	-0.63658845
103	0x3fc0a79a	1.5051148
104	0xbb09e637	-0.002104176
105	0x3edb9cbf	0.42893025
106	0xbed9f918	-0.42572856
107	0x3f17c4f6	0.59284914
108	0xc01d0cdd	-2.45391
109	0xbf2e55e6	-0.6809982
110	0x3e9d0aeb	0.30672392
111	0xbfb9087f	-1.4455718
112	0xbd094e21	-0.033521775
113	0xbd1196fc	-0.03554438
114	0xbef18894	-0.47174513
115	0x3e419092	0.18902805
116	0x40134705	2.3012097
117	0x3f95b6e2	1.1696436
118	0x3d55f5fc	0.052236542
119	0x3e44cf87	0.1921979
120	0xbf1dfff9	-0.6171871
121	0x4019d2b9	2.4034865
122	0x3f84ddb7	1.0380162
123	0x3f8c3786	1.0954444
124	0xbf461df1	-0.77389437
125	0xc005c08c	-2.0898771
126	0xbf18d657	-0.59702057
127	0xbfb70051	-1.4296972
128	0xbf23d348	-0.63994265
129	0xbd56e16f	-0.052461084
130	0xbc28afad	-0.010295791
131	0x3f83b94d	1.0290924
132	0x3f9ef672	1.2418959
133	0xc00b2212	-2.1739545
134	0x3e76bf3c	0.24096388
135	0xbf5c6bbb	-0.86101884
136	0xbf2725b7	-0.65291923
137	0xbf9b3ab9	-1.2127296
138	0x3f2f3afa	0.68449366
139	0xbeebfb17	-0.46090004
140	0xbe6a8706	-0.2290307
141	0xbfa680d5	-1.3008066
142	0x3f2da949	0.67836434
143	0xbf7ddb32	-0.9916259
144	0xbf246412	-0.64215195
145	0xbfd8d7fa	-1.6940911
146	0xbe4b152e	-0.19832298
147	0x3e60b028	0.21942198
148	0x3ea04208	0.31300378
149	0x3e1114d8	0.14168108
150	0x3f2f6f88	0.6852956
151	0x3fb2d4f9	1.3971244
152	0x3fd4206f	1.6572398
153	0xbfc53ce8	-1.5409212
154	0x3e3fcc49	0.18730272
155	0x3f99cc51	1.2015477
156	0xbfa8a998	-1.3176756
157	0xbedc7431	-0.43057397
158	0x3f401ebe	0.7504691
159	0x3e479504	0.19490439
160	0xbfc1f0de	-1.5151632
161	0xbf4d8553	-0.8028156
162	0x3cbda88d	0.02315166
163	0xbfc95abc	-1.5730815
164	0xbf20d6bc	-0.6282766
165	0xbf808778	-1.0041342
166	0x3e4fdc99	0.20298995
167	0x3e7a491c	0.24441952
168	0x3d4f1ae6	0.05056276
169	0x3eb99ed6	0.36253995
170	0xc028c4ad	-2.6370041
171	0xbd8b3ddc	-0.06798908
172	0x3f182aba	0.59440196
173	0xbf34f1a9	-0.70681244
174	0x3f89b3e7	1.0758027
175	0xbeaa8662	-0.3330565
176	0x3e9f4a1b	0.31111225
177	0xbfe0159b	-1.7506593
178	0x3d1b1423	0.037861
179	0xbff228b0	-1.8918667
180	0xbf853783	-1.0407566
181	0xc01838b5	-2.3784611
182	0xbfb1a139	-1.3877326
183	0xbf820aff	-1.0159606
184	0x3f102bd4	0.56316876
185	0xbf5ff47c	-0.8748243
186	0x3ff8b7c7	1.9431084
187	0x401afc17	2.4216363
188	0xbe3de1fe	-0.1854324
189	0xbf8a10d6	-1.0786388
190	0xbe9dae68	-0.30797124
191	0xbf881c9c	-1.0633731
192	0xbf916032	-1.1357481
193	0x3ff38983	1.902634
194	0xbfbb4519	-1.4630462
195	0x3e8ac44e	0.27102894
196	0xc04618ff	-3.0952756
197	0xc00fd112	-2.2471356
198	0x3f9c3d33	1.2206177
199	0xbfd09d8b	-1.6298078
200	0xbff7d8b0	-1.9363003
201	0x3f432324	0.76225495
202	0x3f507b41	0.8143807
203	0xbf204619	-0.6260696
204	0xbff4ef5b	-1.9135545
205	0xbea73783	-0.3265954
206	0x3ddaea52	0.10689224
207	0x3e9ab092	0.30212837
208	0x3ef32bd5	0.4749438
209	0xbff9e830	-1.9523983
210	0xbe588cba	-0.21147433
211	0xbe67a4b9	-0.2262143
212	0x40056957	2.0845544
213	0x403f1100	2.9854126
214	0x3e0bc1fa	0.13648215
215	0x3e9a961e	0.30192655
216	0xbe13ad3b	-0.14421551
217	0xbee075ef	-0.43839976
218	0x3e30de60	0.1727233
219	0x3e4dd72b	0.20101611
220	0x3e18f397	0.14936672
221	0x3ed3022e	0.412126
222	0xc0a3a281	-5.113587
223	0x3cedb6c5	0.029017815
224	0x3f63e010	0.8901377
225	0x400d078d	2.2035859
226	0x3eecd70a	0.46257812
227	0xbf877b4a	-1.05845
228	0xbebe617b	-0.37183747
229	0xbf02e9fb	-0.51138276
230	0xbf795f7f	-0.9741134
231	0x4012a88e	2.2915378
232	0x3f5e4c25	0.8683494
233	0xbf4bb29e	-0.79569423
234	0xc0085a4e	-2.1305118
235	0xbe0658e8	-0.13119853
236	0x3fad6dc8	1.3549128
237	0x3f50ec57	0.81610626
238	0xbf55cfc0	-0.83520126
239	0xbe509d1b	-0.20372431
240	0x3e337003	0.17523198
241	0x3e891793	0.26775798
242	0xbf83068d	-1.0236374
243	0x3f6c04cb	0.92194813
244	0x3e12edbc	0.14348501
245	0xbfa88172	-1.3164504
246	0x3fce0787	1.6096047
247	0xbefd269a	-0.49443513
248	0xbda6470e	-0.08119021
249	0x3fc4b50b	1.536775
250	0xbfdf96e1	-1.746792
251	0xbf19e721	-0.601183
252	0xbfa33e4d	-1.2753388
253	0x3eaf30da	0.34216958
254	0x3efa72a8	0.489156
255	0x3f2fe071	0.68701845
