part8/output/checkpoint2.pt (torch, 5867 bytes, 1 tensors)

fc.weight f4 [4, 300]
-0.81668043 -0.9673087 -0.065038644 1.1631273 0.26224703 -1.4421797 0.10602822 1.2902962
1.4062412 0.045964293 -0.68306446 0.9452244 -0.19962949 1.7567354 -2.2659328 0.60378546
0.10779422 -0.7922612 0.85250306 -0.8861611 0.82724893 -0.35639742 -0.339817 -2.2790616
0.74575657 0.47690302 0.19632325 -0.98996395 -0.13652438 0.2453586 0.77407664 0.04651775
1.2315224 0.12331214 -0.3920693 0.17989253 -0.472997 -0.18841289 1.8175871 0.021532685
0.062925905 0.6109293 2.2153401 -0.82369065 -2.6801057 -0.3183902 0.15364894 0.2687171
-0.8070866 0.64867264 0.21141717 -0.5222984 2.6106653 0.97247744 -0.051431134 -0.72102594
0.6813715 1.7065091 1.3900179 -0.050939064 -0.8280334 0.81362474 -1.1186109 -0.3052399
1.1499904 -0.76916105 1.8926072 -1.4392984 0.7821739 -0.12188212 -1.0578052 -0.75301266
0.59746224 0.43565238 1.4204148 -0.6306885 -0.13966417 1.4254792 -0.11126774 -0.5404205
-0.47479954 -0.34383357 -1.0137608 0.3051858 2.095007 1.0415776 0.6089033 0.27354878
0.8817285 -1.01003 0.010394202 -0.9990027 0.017461393 2.327687 -2.8389869 -1.7641274
1.5751793 -0.76559055 0.694588 0.8761235 -1.3882071 0.2943657 -0.024253655 1.9808285
-0.10922544 0.49139717 -0.6886608 0.1398076 -2.0321608 -0.245561 0.38413116 -1.1801842
0.46656808 0.9060571 -1.1527582 0.26930237 1.4004573 0.78605324 -0.10727456 -0.13098526
-0.9000858 1.9297999 0.8451546 1.5043318 -0.76945215 -1.2095406 -0.6846632 -1.599659
-0.73112255 0.9193797 0.4377669 0.9229156 1.6781125 -1.3963487 0.78774 -1.8309146
-0.5432522 -1.3792259 0.8411597 -0.6286826 -0.12125498 -0.2995197 0.9764283 -0.67349595
-0.70048183 -1.4065386 0.019828506 0.6811678 0.38395622 0.048401684 0.62251073 2.0048902
1.174425 -1.0783336 0.06864069 0.71184427 -0.7277768 -0.8889798 0.59826416 -0.1482448
-1.5198274 -1.2415301 0.028861765 -0.95311874 -0.21763046 -0.30869913 0.06449362 0.44015956
0.7128842 -0.007516074 -2.176381 -0.31748748 0.8645457 -0.48207074 0.9706463 -0.51263493
0.32670292 -1.3912282 -0.42779142 -1.9267948 -0.54400873 -1.7280685 -0.45556924 -1.2512461
-0.18657535 -0.48875538 1.4141608 1.9406228 0.04104753 -0.25091052 -0.44724572 -1.034946
-0.543064 2.0176804 -1.4720193 1.1120605 -1.4221065 -1.679032 1.2394991 -0.9478093
-1.4317161 0.48408213 0.6876754 -0.3139872 -1.5473628 -0.7563151 0.6644938 0.14641805
-0.004859311 -1.9938258 -0.13693932 -0.59504837 1.7449441 2.6623526 0.26903155 0.58205163
-0.4969658 -0.7078032 -0.07158626 0.6726223 0.45248666 0.3419736 -4.030558 -0.41221997
0.92766887 1.9578279 0.3478054 -1.2980912 0.12660633 -0.8673955 -0.7901488 1.5461406
0.618469 0.048090667 -1.9107386 -0.34138286 0.79391617 0.64784753 -0.48293945 -1.296255
0.32857755 0.4289736 -0.46077093 1.0152727 0.8671014 -0.7261488 1.1917484 -0.66370267
0.4597126 1.3324522 -1.1923145 -0.08453186 -2.1134782 0.040739693 0.34607545 0.43728057
00000000: f811 51bf 8ba1 77bf fb32 85bd 5be1 943f
00000010: 3e45 863e 5899 b8bf 5325 d93d 6d28 a53f
00000020: b6ff b33f 0e45 3c3d 50dd 2ebf 3afa 713f
00000030: ac6b 4cbe b5dc e03f 0b05 11c0 af91 1a3f
00000040: 37c3 dc3d a1d1 4abf a43d 5a3f 74db 62bf
00000050: 96c6 533f b979 b6be 7efc adbe 25dc 11c0
00000060: e7e9 3e3f a22c f43e f608 493e 476e 7dbf
00000070: 0ccd 0bbe 493f 7b3e e329 463f 6589 3e3d
00000080: 87a2 9d3f 138b fc3d 4fbd c8be bf35 383e
00000090: aa2c f2be 4fef 40be b2a6 e83f 5065 b03c
000000a0: 4cdf 803d dd65 1c3f 22c8 0d40 64dd 52bf
000000b0: da86 2bc0 0a04 a3be 2656 1d3e 4a95 893e
000000c0: 3a9d 4ebf 690f 263f be7d 583e 59b5 05bf
000000d0: 2415 2740 48f4 783f 74a9 52bd 2895 38bf
000000e0: 5d6e 2e3f e46e da3f 1bec b13f 7ba5 50bd
000000f0: fff9 53bf b649 503f a42e 8fbf 6748 9cbe
00000100: e332 933f bde7 44bf f440 f23f ee3a b8bf
00000110: 8c3c 483f 559d f9bd 2966 87bf 70c5 40bf
00000120: 49f3 183f d40d df3e 27d0 b53f cd74 21bf
00000130: 2004 0fbe 1a76 b63f 57e0 e3bd ff58 0abf
00000140: ed18 f3be f40a b0be eac2 81bf 5041 9c3e
00000150: 9814 0640 6a52 853f 16e1 1b3f 960e 8c3e
00000160: f5b8 613f aa48 81bf 714c 2a3c a4be 7fbf
00000170: 320b 8f3c d3f8 1440 f6b1 35c0 edce e1bf
00000180: 7a9f c93f befd 43bf 85d0 313f a149 603f
00000190: c5b0 b1bf 1ab7 963e 9aaf c6bc ca8b fd3f
000001a0: 96b1 dfbd 6998 fb3e 134c 30bf b929 0f3e
000001b0: ec0e 02c0 5874 7bbe d7ac c43e 4710 97bf
000001c0: 03e2 ee3e 5cf3 673f 958d 93bf 00e2 893e
000001d0: 2f42 b33f c93a 493f c4b2 dbbd 0021 06be
000001e0: 066c 66bf af03 f73f 0d5c 583f f28d c03f
000001f0: d1fa 44bf 3ad2 9abf 1646 2fbf a0c1 ccbf
00000200: d92a 3bbf 785c 6b3f fc22 e03e 3244 6c3f
00000210: 64cc d63f 8ebb b2bf 54a9 493f 695b eabf
00000220: 9412 0bbf 798a b0bf 3e56 573f 58f1 20bf
00000230: 8854 f8bd a55a 99be 34f7 793f 3b6a 2cbf
00000240: c752 33bf 7509 b4bf 646f a23c 0361 2e3f
00000250: e995 c43e d840 463d dd5c 1f3f 1f50 0040
00000260: 8f53 963f d606 8abf 7d93 8c3d 6d3b 363f
00000270: 954f 3abf 2e94 63bf d727 193f 7ccd 17be
00000280: b489 c2bf 75ea 9ebf 826f ec3c 97ff 73bf
00000290: 85da 5ebe d00d 9ebe 3b15 843d 985c e13e
000002a0: 947f 363f 6649 f6bb d449 0bc0 b88d a2be
000002b0: de52 5d3f fad1 f6be 477c 783f 0b3c 03bf
000002c0: 9b45 a73e c413 b2bf 7a07 dbbe 36a1 f6bf
000002d0: 2844 0bbf 5931 ddbf 5f40 e9be d528 a0bf
000002e0: 9c0d 3fbe 253e fabe 3903 b53f 5466 f83f
000002f0: 7421 283d 5877 80be 64fd e4be 1c79 84bf
00000300: 3e06 0bbf ad21 0140 216b bcbf 0058 8e3f
00000310: 9607 b6bf 85ea d6bf e8a7 9e3f a1a3 72bf
00000320: 7942 b7bf 9dd9 f73e 7f0b 303f eec2 a0be
00000330: fc0f c6bf de9d 41bf 441c 2a3f 9dee 153e
00000340: db3a 9fbb af35 ffbf d239 0cbe 1755 18bf
00000350: 545a df3f fc63 2a40 81be 893e 5601 153f
00000360: 4d72 febe 9732 35bf d19b 92bd fa30 2c3f
00000370: 55ac e73e 2a17 af3e 55fa 80c0 7f0e d3be
00000380: b57b 6d3f 1b9a fa3f 8d13 b23e da27 a6bf
00000390: 17a5 013e a20d 5ebf 3147 4abf efe7 c53f
000003a0: fc53 1e3f b8fa 443d 1593 f4bf bcc9 aebe
000003b0: 173e 4b3f 56d9 253f d743 f7be afeb a5bf
000003c0: 513b a83e 6da2 db3e 2bea ebbe 75f4 813f
000003d0: 5bfa 5d3f e3e4 39bf 368b 983f 6be8 29bf
000003e0: 735f eb3e cb8d aa3f c39d 98bf 0a1f adbd
000003f0: 3a43 07c0 aade 263d cd30 b13e 3de3 df3e
