part8/output/checkpoint3.pt (torch, 5867 bytes, 1 tensors)

fc.weight f4 [4, 300]
0	0xbf513a76	-0.8172983
1	0xbf674b42	-0.9034921
2	0xbdbeab3c	-0.09310004
3	0x3f96fa9b	1.1795229
4	0x3f19f6f3	0.6014244
5	0xbfc0787b	-1.5036768
6	0xbe4d7f88	-0.2006818
7	0x3fb7e7a0	1.4367561
8	0x3fb1c726	1.38889
9	0x3cf69ce5	0.03010411
10	0xbef2fd8a	-0.4745906
11	0x3f8494b2	1.0357878
12	0xbe10e500	-0.14149857
13	0x3fc44831	1.5334531
14	0xc0097613	-2.1478317
15	0x3f068a63	0.5255491
16	0x3db54512	0.08851065
17	0xbf5accee	-0.8546895
18	0x3f5f650f	0.8726358
19	0xbf4d3292	-0.8015529
20	0x3f5599d9	0.8343788
21	0xbf09a79b	-0.5377137
22	0xbe9a64ba	-0.30154973
23	0xc0196b60	-2.3971786
24	0x3f5d97c6	0.8655971
25	0x3f0ed142	0.5578805
26	0x3e7044bb	0.23463719
27	0xbf308f95	-0.6896909
28	0xbdb8691e	-0.090044245
29	0x3e5d4870	0.21609664
30	0x3f4545a6	0.770594
31	0xbde90d67	-0.113795094
32	0x3fa6e302	1.3038027
33	0x3cecda5f	0.028912721
34	0xbeb82080	-0.35962296
35	0x3ee2b24e	0.4427666
36	0xbf0fa4c8	-0.5611081
37	0xbe2a018f	-0.16602157
38	0x3fe77851	1.8083593
39	0xbe418dac	-0.189017
40	0x3d6f3c34	0.058407024
41	0x3f120da7	0.5705208
42	0x4017be59	2.370993
43	0xbf502b3f	-0.8131599
44	0xc0331d16	-2.7986503
45	0xbeb4f7b7	-0.3534524
46	0xbd843420	-0.064552546
47	0x3e9508a1	0.29108146
48	0xbf38edb0	-0.7223768
49	0x3f45fd6d	0.7733982
50	0x3e34f81d	0.17672773
51	0xbf3c95d6	-0.7366613
52	0x40216200	2.5216064
53	0x3f6a1ff2	0.91454995
54	0xbe29a388	-0.16566288
55	0xbf2590b2	-0.6467391
56	0x3f1d1f65	0.6137603
57	0x3fca835b	1.5821337
58	0x3fc360db	1.5263933
59	0xbd86f82b	-0.06590303
60	0xbf7657f9	-0.96227986
61	0x3f771fea	0.9653307
62	0xbfa760f1	-1.3076459
63	0xbefc34ab	-0.49258932
64	0x3f8301bf	1.0234908
65	0xbf5515e1	-0.8323651
66	0x3ff83f7f	1.9394377
67	0xbfbe52f3	-1.4869064
68	0x3f48159c	0.78157973
69	0x3df3a5c8	0.11896855
70	0xbfa5fb1e	-1.296726
71	0xbf5541d6	-0.8330358
72	0x3f146d3d	0.57979184
73	0x3e53469c	0.20632404
74	0x3fba8da2	1.4574473
75	0xbf44696d	-0.76723367
76	0xbedc9837	-0.4308488
77	0x3fb43774	1.4079423
78	0xbd5c733b	-0.05382083
79	0xbeb6b1b0	-0.3568244
80	0xbed3a4c8	-0.41336656
81	0x3e3214df	0.17390774
82	0xbf8a9bad	-1.0828758
83	0x3eb6884f	0.3565087
84	0x4010b483	2.2610176
85	0x3f8066d6	1.0031383
86	0x3f2dfb6c	0.67961764
87	0x3ee54ec9	0.4478667
88	0x3f5ca844	0.8619425
89	0xbfa1fdfc	-1.2655635
90	0xbe654d44	-0.22392756
91	0xbf9b7db1	-1.2147733
92	0xbd358215	-0.04431351
93	0x401b1221	2.4229815
94	0xc041f3c7	-3.030504
95	0xbfe3fc0f	-1.7811297
96	0x3fd2113e	1.6411512
97	0xbf4391c6	-0.7639431
98	0x3f0ba9f0	0.5455618
99	0x3f6a021c	0.9140947
100	0xbfba71b3	-1.4565948
101	0x3ece37a5	0.40276828
102	0xbe3fd784	-0.18734556
103	0x3fea5ec2	1.8310168
104	0xbd3f026a	-0.04663316
105	0x3ee6a1fe	0.45045465
106	0xbf16c3c9	-0.58892494
107	0x3e8d577a	0.27605802
108	0xc00dc255	-2.214986
109	0xbeb3d49c	-0.35123146
110	0x3ebdbb95	0.37057176
111	0xbf9a6e18	-1.2064848
112	0x3ea6d5ce	0.32584995
113	0x3f269a35	0.6507905
114	0xbf76913d	-0.96315366
115	0x3e77f6f7	0.24215303
116	0x3fd14a60	1.6350822
117	0x3f61d8e4	0.88221574
118	0xbd997520	-0.07493043
119	0xbd74188f	-0.059593733
120	0xbf53c419	-0.82721096
121	0x4003e1aa	2.0606484
122	0x3f670c91	0.9025355
123	0x3fae7c76	1.3631732
124	0xbf4dbe43	-0.8036844
125	0xbfb43d87	-1.4081277
126	0xbf317734	-0.69322515
127	0xbfca3342	-1.5796893
128	0xbf328a99	-0.69742733
129	0x3f1a3190	0.60231876
130	0x3e92abf2	0.2864681
131	0x3f74ee52	0.9567615
132	0x3fcd178d	1.6022812
133	0xbfcea6eb	-1.6144689
134	0x3f19efe5	0.60131675
135	0xbfc57c29	-1.5428516
136	0xbf16a4f3	-0.5884544
137	0xbfa5f6b9	-1.2965919
138	0x3f50fcff	0.8163604
139	0xbf1613cc	-0.5862396
140	0xbde2d1dc	-0.11075184
141	0xbf2306bc	-0.6368215
142	0x3f646e96	0.8923124
143	0xbf46c5c6	-0.7764553
144	0xbf2d9482	-0.6780473
145	0xbfc29506	-1.5201728
146	0xbdca2a2e	-0.098713264
147	0x3f1410f4	0.5783837
148	0x3ec2099b	0.37897953
149	0x3d973122	0.07382418
150	0x3f1c876c	0.6114414
151	0x3feab869	1.8337528
152	0x3fa80b5f	1.312847
153	0xbf9831d0	-1.1890202
154	0x3de3fafd	0.111318566
155	0x3f5e0f81	0.8674241
156	0xbf637119	-0.8884445
157	0xbf4d53c5	-0.8020595
158	0x3f22287f	0.6334304
159	0xbd83c061	-0.06433178
160	0xbfc788a0	-1.558857
161	0xbf8c2948	-1.0950098
162	0x3d677f8d	0.056518126
163	0xbf8e4a86	-1.1116493
164	0xbea1046f	-0.31448695
165	0xbf083e47	-0.5322003
166	0x3e1939fa	0.14963523
167	0x3ea66ca1	0.32504752
168	0x3f0810b5	0.5315049
169	0x3df2ea7c	0.118611306
170	0xc013575b	-2.3022068
171	0xbe82f054	-0.2557398
172	0x3f45166a	0.76987326
173	0xbf0e9933	-0.55702513
174	0x3f81fa48	1.0154505
175	0xbede7737	-0.4345033
176	0x3e9f5dcd	0.31126252
177	0xbfc0f237	-1.5073918
178	0xbe82a219	-0.25514296
179	0xbff7cf24	-1.9360089
180	0xbf2eb012	-0.6823741
181	0xbff9f006	-1.9526374
182	0xbf30bbc2	-0.69036496
183	0xbf94b83f	-1.1618727
184	0x3c02df4e	0.00798781
185	0xbf119730	-0.5687132
186	0x3fcb58ea	1.588651
187	0x4005c78f	2.090305
188	0x3d44d6c0	0.048056364
189	0xbf03c1c4	-0.5146754
190	0xbec85518	-0.3912742
191	0xbf81d517	-1.0143155
192	0xbf365393	-0.71221274
193	0x400109f1	2.0162318
194	0xbfbf9fe7	-1.4970673
195	0x3f62f88e	0.88660514
196	0xbff3fa36	-1.9060733
197	0xbff22f0e	-1.892061
198	0x3f98799f	1.1912116
199	0xbf922d9b	-1.1420168
200	0xbfd013e1	-1.6256067
201	0x3f117c5b	0.56830376
202	0x3f357464	0.70880723
203	0xbed141c8	-0.408705
204	0xbfd6c0ee	-1.6777627
205	0xbf29b28a	-0.66288054
206	0x3f01536d	0.5051792
207	0x3e25466f	0.1614015
208	0x3e2cbf78	0.16869915
209	0xc000610b	-2.005923
210	0xbe069e20	-0.13146257
211	0xbef922c8	-0.48659348
212	0x3feda0af	1.8564662
213	0x4033cbfa	2.8093247
214	0x3e741a97	0.23838268
215	0x3f06c9c2	0.5265161
216	0xbe9cbe95	-0.30614153
217	0xbf1f377a	-0.62194026
218	0xbc5626cf	-0.013070776
219	0x3f0a0d02	0.539261
220	0x3eba4218	0.3637855
221	0x3ebc5aed	0.3678812
222	0xc08d3082	-4.4121714
223	0xbe96bd5f	-0.29441354
224	0x3f6b8f43	0.92015475
225	0x40039370	2.0558739
226	0x3ec356ab	0.3815206
227	0xbf9e8a84	-1.2386022
228	0xbda18cbc	-0.07888171
229	0xbf3e00cc	-0.74219966
230	0xbf4fd461	-0.8118344
231	0x3fdf37d6	1.7438915
232	0x3f2bb22c	0.67068744
233	0xbe23969c	-0.15975422
234	0xbffbb4f7	-1.9664601
235	0xbe934395	-0.28762498
236	0x3f746423	0.95465297
237	0x3f3a87c3	0.72863406
238	0xbf1ea383	-0.6196825
239	0xbf7b29f6	-0.981109
240	0x3e6d37c3	0.23165803
241	0x3eb1d7a0	0.3473482
242	0xbf2f0058	-0.683599
243	0x3f7751f3	0.9660942
244	0x3f1e5f32	0.61864007
245	0xbf71d4d3	-0.9446537
246	0x3fa33366	1.275006
247	0xbf190af7	-0.59782356
248	0x3ea26d9a	0.31724244
249	0x3fb06a26	1.3782394
250	0xbfaa317a	-1.3296349
251	0xbe3ec460	-0.18629599
252	0xbfed7f11	-1.8554403
253	0x3e0e87e9	0.13919033
254	0x3eaae4ef	0.33377787
255	0x3f09f2a0	0.5388584
