part8/output/checkpoint1.pt (torch, 5867 bytes, 1 tensors)

fc.weight f4 [4, 300]
0	0xbf57121a	-0.84011996
1	0xbf76e4ce	-0.9644288
2	0x3d0d82d6	0.034548603
3	0x3f905e17	1.1278714
4	0xbe1229ac	-0.14273709
5	0xbfa6ef7f	-1.3041838
6	0x3ed4c0ba	0.4155329
7	0x3f8b60ef	1.0888957
8	0x3fb156e8	1.3854647
9	0x3e1c4dc4	0.1526404
10	0xbf8cf9c1	-1.1013719
11	0x3f5f0f96	0.8713316
12	0xbe9cee67	-0.30650637
13	0x4002c1e1	2.0430834
14	0xc016d503	-2.3567512
15	0x3f0ee9eb	0.5582568
16	0x3e5f679c	0.21816868
17	0xbf3920df	-0.7231578
18	0x3f4f13a0	0.8088932
19	0xbf84c51e	-1.0372655
20	0x3f3e5cbc	0.7436025
21	0xbc3c2a66	-0.011484718
22	0xbe979985	-0.29609314
23	0xc0072290	-2.1114845
24	0x3f13714a	0.5759474
25	0x3e8acab2	0.2710777
26	0x3e890b07	0.26766226
27	0xbf9b1142	-1.2114642
28	0xbe4a71b1	-0.19769932
29	0x3eac64c2	0.33670622
30	0x3f3f1878	0.7464671
31	0x3ea6a104	0.3254472
32	0x3f8a2d2a	1.0795033
33	0x3e13ec1a	0.14445534
34	0xbebd07aa	-0.3691991
35	0xbe718b74	-0.23588353
36	0xbeba3665	-0.36369625
37	0xbe24c2c7	-0.16089927
38	0x3fdef454	1.7418313
39	0x3ead7ff7	0.33886692
40	0x3c4a4eb0	0.012347862
41	0x3ece3eb7	0.40282223
42	0x3ffa7f04	1.9570012
43	0xbf34ebef	-0.70672506
44	0xc01968d9	-2.3970244
45	0xbe81855c	-0.25297058
46	0x3eebb329	0.46035126
47	0x3e7af733	0.24508362
48	0xbf3e5f20	-0.743639
49	0x3f1956b9	0.59897953
50	0x3d10bab7	0.035334315
51	0xbdb57ff9	-0.088622995
52	0x403589a6	2.8365264
53	0x3f934c09	1.1507579
54	0x3e003896	0.12521586
55	0xbf3a0334	-0.7266114
56	0x3f57eb7d	0.843437
57	0x3fe98592	1.8243887
58	0x3f9c5322	1.221287
59	0x3e29811a	0.16553155
60	0xbf32420d	-0.69632035
61	0x3f2888d9	0.6583381
62	0xbf6b7b6a	-0.9198519
63	0xbe2e9606	-0.17049417
64	0x3fa5f2a4	1.2964673
65	0xbf280173	-0.6562721
66	0x3ff49d1b	1.9110445
67	0xbfa4dddb	-1.2880205
68	0x3f78c656	0.97177637
69	0xbe976c75	-0.29574934
70	0xbeee66d2	-0.4656282
71	0xbf361a7c	-0.7113416
72	0x3f00dbab	0.50335187
73	0x3f4ae79f	0.79259676
74	0x3faa608b	1.3310713
75	0xbeb16200	-0.3464508
76	0x3e81e310	0.25368547
77	0x3fabfc9d	1.3436466
78	0xbe484864	-0.19558865
79	0xbf3bae77	-0.7331309
80	0xbee69426	-0.45034903
81	0xbf8da4b9	-1.1065894
82	0xbf68c0bc	-0.9091909
83	0x3e1b9b3c	0.15195936
84	0x3feab053	1.833506
85	0x3f711a56	0.9418081
86	0x3f0671de	0.525175
87	0x3da08a2f	0.078388564
88	0x3f6fcb83	0.9366991
89	0xbf26e245	-0.6518901
90	0x3e2c9d4c	0.16856879
91	0xbf2bd80e	-0.6712655
92	0x3e888640	0.26664925
93	0x4003f6b2	2.061932
94	0xc01ecfe5	-2.4814389
95	0xbfd7e3c3	-1.6866382
96	0x3fc8813f	1.5664443
97	0xbf1bcc84	-0.6085894
98	0x3f698ec3	0.9123346
99	0x3f808600	1.0040894
100	0xbf978d20	-1.1839943
101	0x3e3b88a3	0.18313842
102	0x3e9fd87f	0.3121986
103	0x4005d6ed	2.091243
104	0xbe81d6b8	-0.2535913
105	0x3f29aa24	0.6627524
106	0xbf62167d	-0.88315564
107	0x3d338d62	0.043836005
108	0xbfe3273f	-1.7746352
109	0xbb3571bf	-0.0027686206
110	0x3efa52b7	0.4889123
111	0xbf8f5725	-1.1198469
112	0x3f2b3ffe	0.6689452
113	0x3f876ac3	1.0579456
114	0xbfa9dad3	-1.3269905
115	0x3eba5041	0.36389354
116	0x3f859034	1.0434632
117	0x3f15a2d3	0.58451575
118	0xbe19af03	-0.15008168
119	0xbeb479be	-0.35249132
120	0xbf7c29bd	-0.9850119
121	0x3fe81c0e	1.8133562
122	0x3f4a4e6a	0.790259
123	0x3fd8286e	1.6887338
124	0xbf246095	-0.6420987
125	0xbf5e45ab	-0.86825055
126	0xbf29f7e2	-0.66393864
127	0xbfc052d8	-1.5025282
128	0xbf44f10f	-0.76930326
129	0x3fa3ae1b	1.2787508
130	0x3f1c423a	0.61038554
131	0x3f4d25d9	0.80135876
132	0x3fec01d9	1.8438064
133	0xbf8bf9d3	-1.0935615
134	0x3f81a68d	1.0128952
135	0xc00a2126	-2.1582732
136	0xbed4e234	-0.4157883
137	0xbfbbcf67	-1.4672669
138	0x3f5818b1	0.84412676
139	0xbf19ed65	-0.6012786
140	0xbe45fe2e	-0.19335243
141	0x3ea5d0f3	0.32385978
142	0x3f9c96e6	1.223355
143	0xbf22e471	-0.63629824
144	0xbf309ca8	-0.6898904
145	0xbf9c47bb	-1.220939
146	0x3eab6204	0.33473217
147	0x3f43cc0a	0.76483214
148	0x3eefeb55	0.46859232
149	0x3b8a2655	0.0042159953
150	0x3f2b8374	0.66997457
151	0x40074c97	2.1140497
152	0x3f80c49f	1.0060004
153	0xbf8a7fe0	-1.0820274
154	0xbdde6487	-0.10859018
155	0x3ece1949	0.40253666
156	0xbf0dfa7a	-0.5546032
157	0xbf88a900	-1.0676575
158	0x3f06a228	0.5259118
159	0xbedfc222	-0.437028
160	0xbfb886ee	-1.4416177
161	0xbfb129b6	-1.3840854
162	0x3e2a0c5f	0.16606282
163	0xbf4df7ec	-0.80456424
164	0xbdd8b1f8	-0.1058082
165	0x3c35e2fb	0.01110148
166	0x3d7239d6	0.059137188
167	0x3f12bc8d	0.57318956
168	0x3f5279a1	0.8221684
169	0xbe9939ab	-0.2992681
170	0xbffbc5dc	-1.9669757
171	0xbecb2f54	-0.39684546
172	0x3f585b73	0.8451454
173	0xbf0344ae	-0.5127667
174	0x3f46472d	0.77452356
175	0xbeec1f1d	-0.46117488
176	0x3e8bc1ef	0.27296397
177	0xbf9df9e3	-1.2341884
178	0xbf16327d	-0.5867079
179	0xbff00003	-1.8750004
180	0xbf121a23	-0.5707113
181	0xbfb384df	-1.4024924
182	0xbbe07395	-0.006849716
183	0xbfb220ab	-1.391622
184	0xbeeb005a	-0.45898706
185	0xbeb69d9a	-0.35667115
186	0x3f9e091d	1.2346531
187	0x3fc1289e	1.509052
188	0x3da309f9	0.079608865
189	0x3d9d2ee1	0.07674957
190	0xbeeb91af	-0.46009585
191	0xbf83b1ef	-1.0288676
192	0xbeea1a02	-0.45722967
193	0x3ff3d5eb	1.9049658
194	0xbfb42ae5	-1.407559
195	0x3fbab57e	1.4586637
196	0xbf4b9530	-0.7952452
197	0xbfae5763	-1.3620418
198	0x3fa0cf19	1.2563201
199	0xbf2470e5	-0.64234763
200	0xbf96f38d	-1.1793076
201	0x3ee2b528	0.44278836
202	0x3f149841	0.5804482
203	0xbbd13e36	-0.00638559
204	0xbfae6014	-1.3623071
205	0xbf6ce583	-0.9253771
206	0x3f2d1917	0.6761641
207	0x3e6772af	0.22602342
208	0xbea39a5e	-0.3195371
209	0xbff68014	-1.9257836
210	0xbe2a7acb	-0.16648404
211	0xbf03f76d	-0.51549417
212	0x3fd47f1c	1.6601291
213	0x401c972d	2.446727
214	0x3e758194	0.23975211
215	0x3f1ca3e4	0.6118758
216	0xbf1efeab	-0.6210734
217	0xbf65a2d4	-0.8970158
218	0xbe52b904	-0.2057839
219	0x3f3652f3	0.7122032
220	0x3ef643b3	0.48098525
221	0x3ebfc40d	0.37454262
222	0xc06147de	-3.5200114
223	0xbefd473b	-0.49468407
224	0x3f61d7af	0.8821973
225	0x3fe8971a	1.8171113
226	0x3e7348c0	0.2375822
227	0xbfa8d96f	-1.3191355
228	0x3e72b16d	0.23700495
229	0xbfa07371	-1.253523
230	0xbf3aa7d1	-0.7291232
231	0x3fb084af	1.3790492
232	0x3f270f7e	0.65258014
233	0x3e788e3d	0.2427301
234	0xbfe8283f	-1.8137282
235	0xbedd9720	-0.43279362
236	0x3ede50b4	0.43420947
237	0x3f0784ec	0.529372
238	0xbea3d42a	-0.31997806
239	0xbfcecf11	-1.6156942
240	0x3f0bd1e4	0.5461714
241	0x3f27688f	0.6539392
242	0xbe2dd44d	-0.16975518
243	0x3f7ab6b8	0.97935057
244	0x3f9390d8	1.1528578
245	0xbee36c1e	-0.44418424
246	0x3f89b121	1.075718
247	0xbf0c3283	-0.54764575
248	0x3f1849de	0.5948771
249	0x3f9f8ed4	1.2465463
250	0xbf7dc467	-0.9912781
251	0x3e833b1a	0.25631028
252	0xc01d76cd	-2.460376
253	0xbdc8b326	-0.09799795
254	0x3ecfe59a	0.4060486
255	0x3eb009d3	0.34382495
