part8/output/checkpoint8.pt (torch, 5867 bytes, 1 tensors)

fc.weight f4 [4, 300]
0	0xbf752c96	-0.9577116
1	0xbf39905a	-0.7248589
2	0x3cf852d9	0.030312942
3	0x3fa37648	1.2770472
4	0x3fc2898d	1.5198227
5	0xbfe63d4b	-1.7987455
6	0xbf9d76d7	-1.2301892
7	0x3fdfe9a7	1.749318
8	0x3fae305c	1.3608508
9	0x3db47271	0.088108905
10	0x3eb584ff	0.3545303
11	0x3f865a68	1.049634
12	0xbd45c01d	-0.048278917
13	0x3f5142a9	0.8174234
14	0xbfee81c1	-1.8633348
15	0x3ec3f4b5	0.38272634
16	0xbe935bdf	-0.2878103
17	0xbf64b558	-0.8933921
18	0x3f5ad0df	0.8547496
19	0xbef0c7ba	-0.4702738
20	0x3f45cdbc	0.7726705
21	0xbf98e46c	-1.1944709
22	0xbe5ebbe7	-0.21751367
23	0xc0339203	-2.8057868
24	0x3f8a48df	1.0803488
25	0x3f41f31f	0.757616
26	0x3f1835ed	0.59457284
27	0x3ba0ecce	0.004911042
28	0xbe2b7c41	-0.16746618
29	0xbd8894ee	-0.06669031
30	0x3f0f682f	0.56018347
31	0xbf13ca36	-0.57730424
32	0x3fb154fc	1.385406
33	0xbe5cfb24	-0.21580178
34	0xbf003608	-0.50082445
35	0x3f7a29a7	0.97719806
36	0xbf972f68	-1.1811342
37	0xbd69eced	-0.057110716
38	0x3fe0a2d9	1.7549697
39	0xbf6f46f2	-0.9346763
40	0x3e5617eb	0.20907561
41	0x3efbd279	0.49184015
42	0x4033e225	2.8106778
43	0xbf167c94	-0.5878384
44	0xc0496398	-3.1467037
45	0xbef5a472	-0.47977024
46	0xbecd5ac5	-0.40108314
47	0x3ecf18fa	0.40448743
48	0xbf469667	-0.77573246
49	0x3f845d0f	1.0340899
50	0x3e6bc204	0.2302323
51	0xbfa7aee2	-1.3100245
52	0x401476f1	2.3197596
53	0x3f2a567b	0.6653821
54	0xbf3c7859	-0.73621136
55	0xbf07c2e6	-0.53031766
56	0x3f17386a	0.59070456
57	0x3f8e4e77	1.1117696
58	0x3fe48e27	1.7855881
59	0xbe03da4a	-0.1287624
60	0xbfb577a3	-1.4177135
61	0x3fabd406	1.342408
62	0xbfd6839b	-1.6758913
63	0xbf82ae34	-1.0209413
64	0x3f709fcf	0.9399385
65	0xbf3c31ec	-0.73513675
66	0x3fff5ce5	1.9950224
67	0xbfd3a52e	-1.6534784
68	0x3f329b52	0.6976825
69	0x3f31dbe5	0.6947616
70	0xbff7bbbd	-1.9354168
71	0xbf55e5ba	-0.8355366
72	0x3f25ef08	0.6481786
73	0xbe70fe4c	-0.23534507
74	0x3fbf1916	1.4929531
75	0xbf9cc6d3	-1.2248176
76	0xbfa0427a	-1.2520287
77	0x3fc4398e	1.5330064
78	0x3e2e144e	0.16999933
79	0x3e90d221	0.28285316
80	0xbcd385ce	-0.025820639
81	0x3fceb4ef	1.6148967
82	0xbfb30428	-1.3985643
83	0x3f2821fc	0.65676856
84	0x401e9566	2.4778686
85	0x3f8f1e23	1.1181072
86	0x3f3e7206	0.74392736
87	0x3f05c0f1	0.5224753
88	0x3f434223	0.7627279
89	0xbfcca8bf	-1.5988997
90	0xbf4e7682	-0.8064958
91	0xbfe1bbf2	-1.7635481
92	0xbe3b5a4c	-0.18296164
93	0x4023e097	2.5605829
94	0xc05f8f3f	-3.493118
95	0xbff1938d	-1.8873154
96	0x3fdd3fba	1.7285073
97	0xbf3a6300	-0.7280731
98	0x3e7a7f91	0.24462725
99	0x3f8efb82	1.1170504
100	0xbfe49f8d	-1.7861191
101	0x3f6cacd5	0.9245122
102	0xbf1fd273	-0.62430495
103	0x3fbbb0d2	1.4663336
104	0x3c0a47a6	0.008439934
105	0x3ec78a9a	0.38972932
106	0xbecd8442	-0.40139967
107	0x3f1e664e	0.61874855
108	0xc01a8a10	-2.4146767
109	0xbf408de1	-0.7521649
110	0x3ea50c4d	0.32235947
111	0xbfbf3240	-1.493721
112	0xbddc5f1e	-0.1076033
113	0xbda4a7bf	-0.080398075
114	0xbecf1258	-0.40443683
115	0x3e2e961a	0.17049447
116	0x401b8098	2.4297237
117	0x3f9baef5	1.2162768
118	0x3c243778	0.01002299
119	0x3e84d3a5	0.25942722
120	0xbf21faa0	-0.6327305
121	0x401d2eaa	2.4559731
122	0x3f8ed5da	1.1159012
123	0x3f84f9ff	1.0388793
124	0xbf50c856	-0.8155569
125	0xc00cd12d	-2.200267
126	0xbf0bd464	-0.5462096
127	0xbfb96fae	-1.4487207
128	0xbf26309b	-0.64917916
129	0xbe456884	-0.19278151
130	0xbbedfaf9	-0.0072625843
131	0x3f8f9437	1.1217107
132	0x3f946ad1	1.1595098
133	0xc0122806	-2.2836928
134	0x3e8778e8	0.26459432
135	0xbf49ab08	-0.787766
136	0xbf354eb1	-0.708232
137	0xbf98fd96	-1.1952388
138	0x3f297f06	0.6620945
139	0xbefca54d	-0.49344864
140	0xbe682597	-0.2267059
141	0xbfb98322	-1.4493144
142	0x3f2f3ac4	0.68449044
143	0xbf6e08fc	-0.9298246
144	0xbf368c1d	-0.71307546
145	0xbfd7a532	-1.6847289
146	0xbe944e7a	-0.28966123
147	0x3e0ae6bc	0.1356458
148	0x3e8fee4f	0.28111503
149	0x3e46e272	0.1942232
150	0x3f2de7b3	0.6793167
151	0x3fa48dd3	1.2855781
152	0x3fdb6e20	1.7142982
153	0xbfcc13a6	-1.5943496
154	0x3e3dd3db	0.18537848
155	0x3fa29cc4	1.2704091
156	0xbfabcfe8	-1.3422823
157	0xbeb288e6	-0.3487007
158	0x3f538c2c	0.8263576
159	0x3e9b73bd	0.3036174
160	0xbfc1a781	-1.5129243
161	0xbf3456b9	-0.7044483
162	0xbd060b07	-0.03272536
163	0xbfcf0cad	-1.6175743
164	0xbf2ce6fd	-0.6753996
165	0xbf93fd6d	-1.1561714
166	0x3e32e214	0.17469054
167	0x3e7df335	0.24799807
168	0xbd9fbd25	-0.07799748
169	0x3eac25a9	0.33622482
170	0xc02f9482	-2.7434392
171	0xbd0d3533	-0.034474563
172	0x3f084a32	0.53238213
173	0xbf365986	-0.7123035
174	0x3f8ffd84	1.1249242
175	0xbea779a5	-0.32709995
176	0x3eaf94d8	0.34293246
177	0xbfe10dd4	-1.7582345
178	0x3de3a3ad	0.11115203
179	0xbfee96bd	-1.8639752
180	0xbf835cd1	-1.02627
181	0xc01927fa	-2.393065
182	0xbfbdd2f7	-1.4830006
183	0xbf6de5c4	-0.9292872
184	0x3f2f13cc	0.6838958
185	0xbf64259a	-0.89119875
186	0x3ffd9460	1.9810905
187	0x401ede5c	2.4823217
188	0xbe9111f0	-0.28333998
189	0xbf8e8726	-1.1134994
190	0xbe8f2dd4	-0.27964652
191	0xbf8dbd90	-1.1073475
192	0xbf9e9beb	-1.2391332
193	0x3ff30378	1.8985434
194	0xbfb4667a	-1.4093773
195	0x3e285bae	0.16441223
196	0xc0532a25	-3.2994473
197	0xc0101198	-2.2510738
198	0x3f96fc2e	1.1795709
199	0xbfd26bb7	-1.6439122
200	0xbffb7c5f	-1.964733
201	0x3f332f75	0.6999429
202	0x3f4b763a	0.79477274
203	0xbf30f5e7	-0.6912522
204	0xbffce589	-1.9757549
205	0xbebddcdf	-0.37082574
206	0x3da2f364	0.07956579
207	0x3e952b82	0.29134756
208	0x3f18b7d5	0.59655505
209	0xbff03e4a	-1.8769009
210	0xbe568db7	-0.20952497
211	0xbe484f53	-0.1956151
212	0x4009fc9a	2.1560426
213	0x403993ef	2.8996542
214	0x3e17c66d	0.14821787
215	0x3e56c9b9	0.20975389
216	0xbdd6a0e4	-0.10479906
217	0xbed6e546	-0.41971797
218	0x3e293018	0.16522253
219	0x3e47fc28	0.19529784
220	0x3e1ff805	0.15621956
221	0x3ec0ed63	0.37681112
222	0xc0a4fa01	-5.155518
223	0x3d9adaa0	0.07561231
224	0x3f616e07	0.88058513
225	0x4010d622	2.2630696
226	0x3efa1d44	0.48850453
227	0xbf8074e4	-1.0035672
228	0xbed27839	-0.41107348
229	0xbedf19c4	-0.43574345
230	0xbf7b70f8	-0.9821925
231	0x4016b365	2.3546994
232	0x3f687337	0.90800804
233	0xbf60b4a2	-0.87775624
234	0xc00aa8c9	-2.1665518
235	0xbd931b20	-0.07182908
236	0x3fb074f4	1.3785691
237	0x3f631f41	0.88719565
238	0xbf5b7268	-0.85721445
239	0xbe1644d5	-0.14674695
240	0x3e6b3b8f	0.22971939
241	0x3e3544f3	0.17702083
242	0xbf89e990	-1.0774403
243	0x3f6dbfb3	0.92870635
244	0xbc4dd317	-0.012562535
245	0xbfad1859	-1.3523055
246	0x3fe00fc7	1.7504815
247	0xbf13789c	-0.5760591
248	0xbe047509	-0.1293527
249	0x3fcdf142	1.6089251
250	0xbfdcf7c8	-1.7263117
251	0xbf4366d0	-0.76328754
252	0xbf94ccf5	-1.1625048
253	0x3eb713a5	0.35757175
254	0x3f06b54c	0.5262039
255	0x3f2cc3e1	0.6748639
