part8/output/checkpoint6.pt (torch, 5867 bytes, 1 tensors)

fc.weight f4 [4, 300]
000000 e1 95 5f bf b3 c9 4b bf 9e 65 59 bd 36 8e 96 3f
       -0.8733807 -0.79604644 -0.053075425 1.1762149
000010 42 13 a5 3f e9 ae d6 bf 24 5a 60 bf 1c 63 d6 3f
       1.2896502 -1.6772128 -0.87637544 1.6748996
000020 7b 41 ab 3f 2f f4 b4 3c b9 19 a0 3d e2 e6 86 3f
       1.3379358 0.022089092 0.07817406 1.053921
000030 32 66 6b bc 43 3c 80 3f 13 6d f8 bf e4 8d c7 3e
       -0.014367627 1.001839 -1.9408287 0.3897544
000040 01 0e 51 be 3d 19 6d bf c1 d4 61 3f b6 cb 18 bf
       -0.20415498 -0.92616636 0.8821526 -0.5968584
000050 dc 63 4e 3f cf 59 85 bf 2e 17 a8 be b6 75 2a c0
       0.80621123 -1.0418032 -0.32830185 -2.6634345
000060 ad 83 86 3f 46 72 24 3f c7 9f 00 3f 12 bf 71 be
       1.0508934 0.6423687 0.502438 -0.23608044
000070 00 d7 22 be c6 41 b6 bb b9 2e 31 3f 36 15 e6 be
       -0.15902328 -0.00556204 0.6921192 -0.44938058
000080 2d b9 af 3f e0 38 08 be 4b 90 fb be 3d 94 51 3f
       1.3728386 -0.13302946 -0.49133524 0.8186682
000090 2a 37 75 bf d9 ab e4 bd 40 82 e9 3f f2 87 33 bf
       -0.957873 -0.1116559 1.8242874 -0.7012931
0000a0 87 c5 3c 3e 1a ee 0a 3f f5 28 29 40 a3 e0 32 bf
       0.18434726 0.54269564 2.6431248 -0.6987402
0000b0 e6 a8 40 c0 8a 6e d2 be 5a 1a 9e be fe 17 a3 3e
       -3.0103087 -0.4109996 -0.3087948 0.31854242
0000c0 d8 bb 45 bf 05 10 68 3f c3 26 b0 3e 5f 1e 9a bf
       -0.7723975 0.90649444 0.34404573 -1.2040519
0000d0 c3 4a 16 40 b3 c8 2f 3f cf a5 0b bf 49 60 16 bf
       2.348313 0.6866562 -0.5454988 -0.5874067
0000e0 80 3a 17 3f 3f cb a1 3f 5c 41 e0 3f 81 bc bb bd
       0.5907364 1.2640151 1.7519946 -0.09166814
0000f0 71 92 9f bf 64 01 a0 3f 6c 43 c1 bf 7a 2c 5b bf
       -1.2466565 1.2500424 -1.50987 -0.8561474
000100 5d c4 6c 3f bd 4a 41 bf 77 0a fd 3f a7 13 d1 bf
       0.92487127 -0.75504667 1.9768819 -1.6334122
000110 50 2c 36 3f ff 6c 06 3f 35 e1 e5 bf 95 c0 59 bf
       0.71161366 0.52510065 -1.7959353 -0.8505948
000120 5a 2c 25 3f d8 dc 19 be dd 88 c7 3f 4d a2 84 bf
       0.645208 -0.15025651 1.5588642 -1.036203
000130 4f 3f 82 bf 01 72 ba 3f 47 c4 8a 3d 2f 5b 98 3d
       -1.017557 1.4566041 0.06775718 0.07439267
000140 73 c2 34 be 7e 05 9a 3f f5 2e a1 bf 9a 22 0e 3f
       -0.17652301 1.2032926 -1.2592455 0.5552155
000150 ab a5 1d 40 1f 92 8d 3f 51 a6 4b 3f 18 d7 01 3f
       2.4632366 1.1060218 0.79550654 0.5071883
000160 77 cb 39 3f c9 f4 cd bf 3d 76 1d bf 57 71 ce bf
       0.7257609 -1.6090328 -0.6150854 -1.6128339
000170 47 2f 3a be 7c bf 26 40 2a d0 55 c0 20 a7 eb bf
       -0.18182097 2.6054373 -3.3408303 -1.8410378
000180 b6 ed ce 3f 90 14 49 bf 5c ff 9a 3e 14 ef 86 3f
       1.6166294 -0.78547 0.3027295 1.0541711
000190 28 ad dc bf b5 13 45 3f 8a 61 08 bf f4 6f cb 3f
       -1.7240343 0.76983196 -0.5327383 1.589354
0001a0 37 7c 43 3a d4 f6 c0 3e ac d1 d5 be 3c 86 0c 3f
       0.0007457169 0.37688315 -0.4176153 0.54892325
0001b0 33 02 17 c0 9a de 1e bf f4 3c ab 3e fe 06 ab bf
       -2.3595092 -0.62058413 0.3344494 -1.3361509
0001c0 82 10 12 3d 4b a3 3f 3e 00 51 1a bf 40 29 22 3e
       0.035660274 0.18714635 -0.60279846 0.15836048
0001d0 4c a9 08 40 74 ca 8d 3f 23 e6 43 bc 2f 30 0b 3e
       2.135333 1.1077409 -0.011956724 0.135926
0001e0 87 55 34 bf 43 bc 11 40 4a ea 87 3f 48 42 93 3f
       -0.70443004 2.2771156 1.0618374 1.1504602
0001f0 8c 83 51 bf 9d c7 fa bf 4f aa 13 bf f8 0d c7 bf
       -0.8184135 -1.9592167 -0.57681745 -1.5551138
000200 a5 af 29 bf d3 16 2b 3d 1a 27 ae 3d 47 85 8b 3f
       -0.6628364 0.041769814 0.08503552 1.0900048
000210 71 d7 a2 3f ff fb 01 c0 b0 66 a3 3e ed 96 76 bf
       1.2721997 -2.0310056 0.31914282 -0.96324044
000220 31 b3 26 bf 21 22 9e bf 5c ef 36 3f fb 47 0a bf
       -0.65117174 -1.2354165 0.71458983 -0.54016083
000230 8a ad 57 be 12 0a 97 bf 3c fe 2b 3f 84 ed 67 bf
       -0.21062294 -1.1799948 0.67184806 -0.90596795
000240 98 b4 24 bf 84 a8 cd bf 2f ed 87 be 33 1c 91 3e
       -0.64338064 -1.6067052 -0.26548144 0.28341827
000250 ba 2d 8d 3e 5f b4 0d 3e 6d bd 1f 3f 92 53 c4 3f
       0.2757395 0.13838337 0.62398416 1.5338004
000260 30 74 c5 3f 16 cc b4 bf e5 0c 24 3e 40 b0 94 3f
       1.5426083 -1.4124782 0.16020544 1.1616287
000270 e1 10 a0 bf 9c f9 ec be 54 ca 46 3f 66 ce 73 3e
       -1.2505151 -0.46284187 0.7765248 0.23809204
000280 fe 5a c9 bf 9b 58 59 bf fd d3 3f bd 03 dc bd bf
       -1.5730894 -0.84900826 -0.046833027 -1.4832767
000290 1b ab 14 bf a3 96 74 bf 82 a1 35 3e fc db 94 3e
       -0.58073586 -0.95542353 0.17737392 0.29074085
0002a0 80 0d 10 3e 43 bd 7f 3e f9 2f 23 c0 b0 79 bc bd
       0.1406765 0.24974541 -2.549803 -0.092028975
0002b0 e4 1b 12 3f 09 5d 10 bf b1 93 8d 3f e7 fd d9 be
       0.5707381 -0.5639196 1.1060697 -0.42576525
0002c0 b2 a3 a5 3e 99 94 d5 bf 17 c2 17 3d 14 a9 eb bf
       0.32351452 -1.6685973 0.037050333 -1.8410974
0002d0 27 0d 5c bf 0a 80 10 c0 92 c9 a2 bf 7e eb 83 bf
       -0.8595757 -2.257815 -1.2717764 -1.0306242
0002e0 2a f8 e8 3e cb 31 48 bf ca 79 f0 3f ef cd 17 40
       0.45501834 -0.7820098 1.8787167 2.3719442
0002f0 d4 3e 05 be 6e f0 82 bf 22 51 8c be d3 62 89 bf
       -0.13012248 -1.0229623 -0.2740565 -1.0733284
000300 07 cb 80 bf 2c 43 fe 3f 72 8b b3 bf d6 34 c0 3e
       -1.0061959 1.9864249 -1.402693 0.3754031
000310 02 5e 37 c0 ba bc 09 c0 f3 20 93 3f 1e 17 bf bf
       -2.8651128 -2.152144 1.149443 -1.492893
000320 f7 16 ec bf 71 91 28 3f 41 90 59 3f a5 14 23 bf
       -1.8444508 0.65846926 0.8498574 -0.63703376
000330 dd a6 ef bf 5b d4 f4 be da 5d 8d 3e a1 bc 6b 3e
       -1.8722798 -0.47818264 0.27610666 0.23021175
000340 73 ff e1 3e c0 d5 fa bf b7 34 31 be 25 e2 b6 be
       0.44140205 -1.9596481 -0.17305265 -0.3571941
000350 ad 1c 03 40 ad a0 39 40 37 41 5b 3e 77 1b 85 3e
       2.0486252 2.9004319 0.21411596 0.25997517
000360 c7 b5 68 be 92 a2 ff be 8c 89 17 3e 97 9d 9a 3e
       -0.22725593 -0.4992872 0.14798564 0.30198357
000370 95 d5 71 3e 78 ae bc 3e 2d 13 9d c0 31 67 bd bc
       0.23616631 0.3685186 -4.908591 -0.023120495
000380 90 6b 65 3f 0a c6 0d 40 ea d9 d7 3e 27 94 8e bf
       0.8961725 2.2152123 0.42158443 -1.1138963
000390 10 be 92 be 74 85 f0 be 18 b4 72 bf 23 1b 08 40
       -0.2866063 -0.46976817 -0.9480605 2.1266563
0003a0 82 a1 49 3f 41 36 2f bf bb 39 06 c0 8f 26 0c be
       0.78762066 -0.6844216 -2.0972736 -0.13686584
0003b0 1e 62 9f 3f bc 91 55 3f a9 a2 4d bf 75 3f cb be
       1.2451818 0.834255 -0.80326325 -0.3969685
0003c0 28 0b 39 3e 12 5b 53 3e 57 ce 81 bf c9 d4 7d 3f
       0.18070662 0.2064021 -1.0141095 0.9915281
0003d0 ce ca 50 3e 46 6a a1 bf a9 24 c8 3f 3c d7 1d bf
       0.20389864 -1.2610557 1.5636188 -0.61656547
0003e0 56 e7 38 bb aa 7b be 3f f5 24 d0 bf 0f a6 1a bf
       -0.002821406 1.4881489 -1.6261278 -0.60409635
0003f0 8d a4 ab bf bb 94 93 3e 52 8c d3 3e 46 0a 26 3f
       -1.3409592 0.2882441 0.41317993 0.64859426
